android/app/src/main/assets/hundredinputmodel.tflite (tflite, 699144 bytes, 12 tensors)

dense_3/bias f4 [11]
000000 47 33 91 bb 61 d9 a8 3c 96 87 9e bb 6c 14 a5 bc
       -0.0044311616 0.020611467 -0.0048379404 -0.02015134
000010 03 69 e0 bb 92 d7 7d 3b 06 c3 f7 bb bb 35 30 3c
       -0.006848456 0.0038733226 -0.0075610904 0.010754998
000020 ad 84 01 bc 31 76 96 3c 77 70 de bc
       -0.0079051675 0.018366905 -0.027153237

dense_2/bias f4 [128]
000000 ed c9 c8 bb 94 24 79 bb 11 98 8b bb 2c c7 85 3c
       -0.006127587 -0.0038016187 -0.004260071 0.016330324
000010 38 65 0c 3c c7 6f d7 bc ba 57 f9 bb fb 53 f4 bc
       0.008569054 -0.026298417 -0.007609335 -0.029825201
000020 d3 96 3d 3b 5a 40 96 3c c2 49 80 3c 83 87 f1 bc
       0.002892901 0.018341232 0.01566017 -0.029483562
000030 80 9e 3c 3c bb 1d 82 bc b7 7a 0a 3d 64 28 0d bc
       0.011512399 -0.015883317 0.033808436 -0.008615587
000040 20 a9 fa bb dd 82 47 3d 06 30 9d bc fa 80 4d bc
       -0.007649556 0.048708785 -0.019187938 -0.012542957
000050 97 d9 d7 ba b7 11 6a 3c b4 4b f0 bc 6e ff 27 3d
       -0.0016468045 0.01428645 -0.029332973 0.04101508
000060 c5 04 23 bd bb df 2a bc 4a a5 46 bc f5 22 ba 3c
       -0.03979947 -0.010429318 -0.012124369 0.022721747
000070 eb 6d c2 3b 1c bd 13 3b fd 82 71 3c 63 da 2f bc
       0.0059335134 0.0022543138 0.014740703 -0.01073322
000080 67 38 fa 3b 6b 7e 6e 3b 85 fb c7 3b 0f 52 10 bc
       0.007636118 0.003639127 0.0061029815 -0.008808627
000090 6b d5 b1 b9 1c 6f 3b bb c6 e4 9b bc 46 87 df bc
       -0.0003391908 -0.0028600162 -0.019029986 -0.027286183
0000a0 83 23 c3 3c 01 d9 45 3b 9c 86 dc bb 7e aa fb bb
       0.023820644 0.003018916 -0.006729914 -0.0076802364
0000b0 d6 f4 f6 3c d1 0c c5 bc 9c f1 5a ba c3 ba 61 3c
       0.030146044 -0.024053963 -0.00083520426 0.013777438
0000c0 b2 48 11 3c f1 f3 33 bc fa c8 84 bc 08 f1 98 3c
       0.00886743 -0.010983453 -0.016209114 0.01866962
0000d0 98 1e ad 3c eb 81 8e bc d5 5b b8 bb 50 cd 3d bb
       0.021132752 -0.017395934 -0.0056261816 -0.0028961487
0000e0 14 81 03 3d 08 e1 a0 bc c4 03 00 bd 4c a1 9c 3c
       0.03210552 -0.019638553 -0.03125359 0.019119881
0000f0 af 28 3c 3c 71 b0 31 bc c0 22 7f 3c df e1 4d 3a
       0.011484309 -0.01084529 0.01557225 0.0007853787
000100 5c 35 66 bc 99 43 28 bc 66 38 04 3c 21 03 9e bc
       -0.014050808 -0.010270023 0.008070087 -0.019288601
000110 ef a8 06 bd a3 0c b3 bc 1e ab cd 3c 79 bb 33 3c
       -0.03287595 -0.021856612 0.02510601 0.01096999
000120 63 0c 29 3c 01 07 01 3c 55 5b 97 bc 53 6f 03 bd
       0.010317895 0.007875205 -0.018476168 -0.03208859
000130 73 7a 86 bb 7f f3 fd 3b a6 67 f3 bc 7e 83 19 3a
       -0.0041039526 0.0077499743 -0.02971251 0.00058560807
000140 69 e3 b4 3c 01 a0 8f b9 61 e1 5c 3c d7 94 f7 bb
       0.022081094 -0.00027394298 0.013481469 -0.007555585
000150 b7 60 e1 bc 41 f7 54 3b 6f 3d bc 3b 42 3a c2 bc
       -0.027511938 0.0032496008 0.005744628 -0.02370942
000160 1f 93 d4 bb a3 f9 d6 3a b5 fd 9c bc ce 3d 90 bc
       -0.0064872648 0.0016401302 -0.019163946 -0.017607596
000170 74 b5 6e bc 38 f6 fa bb cb 54 e3 3c 54 c8 e8 3a
       -0.014569629 -0.007658746 0.027750393 0.0017759898
000180 32 52 f4 bc cc 88 e7 bc 41 44 d5 ba 09 a1 13 3d
       -0.02982435 -0.028263472 -0.0016270952 0.036042247
000190 38 10 0f 3d 25 08 3f bc 84 18 d6 3c 64 3a 06 3d
       0.034927577 -0.011659657 0.026134737 0.03277053
0001a0 61 24 e9 3c c7 9c 91 bc 57 fb 85 bc 5c 05 b3 bc
       0.02845973 -0.017774953 -0.0163552 -0.021853141
0001b0 85 92 8b 3c 8b 50 b0 3c ad ce 28 3a d2 e2 6a 3c
       0.01703764 0.02152278 0.00064394885 0.014336305
0001c0 63 49 19 bd 0d 18 b7 bc 68 02 e2 bc ed bd f1 3c
       -0.037423503 -0.022350335 -0.027589038 0.029509509
0001d0 7c 64 a8 3c 57 69 30 3d b1 b3 35 bc 13 49 30 3c
       0.020555727 0.04306921 -0.011090205 0.01075961
0001e0 ce 75 aa bc b7 b1 b0 3b bb 32 a3 bc 0f a3 f4 bc
       -0.020808127 0.005392279 -0.019921651 -0.029862909
0001f0 9f 2b d9 ba 7d 63 9b bc 07 c5 63 3c 3f bd a9 3c
       -0.0016568786 -0.018968338 0.013901955 0.020720122

bidirectional_1/forward_lstm_1/lstm_cell_7/bias f4 [512]
000000 2b b6 7a bc d4 54 fe bb 39 61 3b 3c 09 fc c1 3b
       -0.015302221 -0.007761577 0.011436754 0.0059199375
000010 2c f6 03 bb 9b aa 60 bc 7c 95 f9 bb 21 5e 80 3c
       -0.0020135744 -0.0137125505 -0.007616697 0.015669884
000020 b1 bf 71 bd 51 1d 0e bc 2b 71 a9 3c 13 56 d3 bc
       -0.0590207 -0.008673982 0.020683846 -0.02579788
000030 e0 fb f2 3a 7a e8 ca 3c 86 4a b1 3c c1 bb 6a 3b
       0.0018538199 0.024769057 0.02164198 0.0035817476
000040 e5 81 42 3c 52 b4 79 bc 1f c5 51 3c b6 d7 ae bb
       0.01187179 -0.015240746 0.012803345 -0.0053357733
000050 4b aa 9d 3c 67 26 32 bd fc 28 36 bc 92 19 05 3d
       0.019246241 -0.043493655 -0.01111817 0.03249509
000060 0f c8 86 ba e7 4f 17 3c 5f 61 4d bc e6 1b 9d bc
       -0.0010283011 0.009235359 -0.012535422 -0.019178342
000070 0a 77 ce bc 87 85 f4 bb d5 8d 9f bc c7 90 e3 3b
       -0.025203247 -0.0074622068 -0.01947681 0.006944749
000080 51 de 37 3c cd 98 7d 3b 1b c2 8b 3b 41 26 4a bc
       0.011222438 0.0038695813 0.0042650825 -0.012338222
000090 62 86 1c bc d5 b9 bc 3c c1 df 5e 3c 27 82 c5 3b
       -0.009553524 0.02303783 0.013603152 0.0060274783
0000a0 e4 aa 36 bb b7 32 4f bb 4f ad e3 bc d9 b0 e0 3c
       -0.0027872855 -0.0031615922 -0.0277926 0.027428078
0000b0 bf e0 0d bc a7 0e a4 3a c3 a5 ae 3c 4f 67 0c 3a
       -0.008659541 0.0012516574 0.021319276 0.00053559704
0000c0 4a f5 db bb 4c 69 e6 bc 31 a2 39 3c 29 06 c5 bc
       -0.0067125903 -0.028126381 0.011330173 -0.024050789
0000d0 7c 3b 2f 3d f7 fd b3 bb cd b8 a2 bb 45 7c c5 bc
       0.042781338 -0.0054929215 -0.0049658776 -0.024107108
0000e0 a1 f1 9d bc f3 4e 21 bc b0 16 02 3b 6b d1 8c 3c
       -0.019280257 -0.009845483 0.0019849949 0.017189702
0000f0 fb 99 82 bc d7 3e 0a 3d 35 da 7a bc db 67 fc bc
       -0.015942564 0.033751335 -0.015310814 -0.03081124
000100 37 6e da 3a 6e c1 46 bc c2 d9 ec 3b 21 a0 74 3b
       0.0016664927 -0.012131078 0.007228107 0.003732689
000110 87 bd 98 3b f5 a9 35 3c b3 3d 96 bc 89 77 86 bc
       0.0046612653 0.011087884 -0.018339967 -0.01641442
000120 a0 3c a1 bc 38 a2 5f 3d 3f 4f a0 3c 23 26 28 bd
       -0.019682229 0.054598063 0.019569037 -0.041051995
000130 f5 75 0a bd 0f ff 39 bc 8d 89 c7 bb 56 38 fc bc
       -0.0338039 -0.011352315 -0.0060893954 -0.030788582
000140 67 1d 45 bb 28 01 b4 3b a9 39 63 3c b4 64 89 bb
       -0.003007734 0.005493302 0.013868728 -0.004192913
000150 ef b1 ae 3c 65 8c b5 3b 9c 56 38 bb e1 66 11 3d
       0.02132508 0.005540418 -0.0028127795 0.035498504
000160 6b 58 e1 bb e4 56 56 bd 42 ef 09 bc c7 6f f4 3c
       -0.0068769953 -0.05232896 -0.00841886 0.029838456
000170 e4 99 07 3d e8 29 d9 bb a0 66 1c bd 2b ab 00 3d
       0.033105746 -0.00662731 -0.03818381 0.03141324
000180 11 f4 e9 3c e0 54 a4 3b 45 53 39 bc 9f 54 b9 bc
       0.028558763 0.0050150007 -0.011311357 -0.022623358
000190 99 00 cd bc 50 60 91 3c a9 b9 1b bd 85 dd 30 3a
       -0.025024699 0.01774612 -0.038018856 0.0006746876
0001a0 fa af a6 3c 06 dd b3 bc 3d c1 8f bc 10 1c 27 bc
       0.020347584 -0.021955978 -0.017548198 -0.010199562
0001b0 58 cc 88 3c c4 9c 8f bc 28 03 1c 3d 14 77 8e bc
       0.016699001 -0.017530806 0.038088948 -0.017390765
0001c0 11 0d 51 3c 14 55 75 bc c5 1e 26 3c 46 90 30 3c
       0.012759463 -0.0149738975 0.010139172 0.010776585
0001d0 e9 0e 07 ba 41 6d ac 3b ae 90 8d 3c cb cf aa 3c
       -0.0005152063 0.0052620475 0.017280903 0.020851037
0001e0 04 bf 9b 3c 85 db 3e 3c 90 45 b5 bc 4a 6e 4f bd
       0.019011982 0.011649017 -0.022127897 -0.05064229
0001f0 86 1b a9 bc 92 c1 9c bc 8c 57 fc bc bc f6 a2 bc
       -0.020643007 -0.01913527 -0.030803464 -0.019893043
000200 70 94 82 3f 1c 04 80 3f 72 77 80 3f 07 37 81 3f
       1.020155 1.0001254 1.0036452 1.0094918
000210 4e de 82 3f 6b f3 81 3f 5a eb 82 3f 8a bc 7f 3f
       1.0224092 1.015241 1.0228074 0.9989706
000220 52 ee 7c 3f 06 51 80 3f 64 41 84 3f bb fc 7f 3f
       0.9880115 1.0024726 1.0332456 0.9999501
000230 36 b0 8a 3f a8 89 82 3f af 83 81 3f dc f3 7c 3f
       1.0835025 1.0198259 1.0118312 0.988096
000240 44 83 85 3f 57 00 7a 3f 01 9c 80 3f a7 88 81 3f
       1.0430684 0.9765677 1.0047609 1.0119828
000250 42 bb 85 3f f3 0d 8a 3f b1 79 83 3f 3f 44 84 3f
       1.0447772 1.0785507 1.0271512 1.0333327
000260 73 55 81 3f af c9 85 3f d4 15 7d 3f ab c2 80 3f
       1.0104202 1.0452174 0.9886143 1.0059408
000270 e1 ae 7c 3f da 7e 80 3f 22 b1 7b 3f 64 82 84 3f
       0.98704344 1.0038712 0.9831716 1.0352292
000280 03 24 82 3f a0 d9 87 3f 1c 6f 83 3f 96 0d 87 3f
       1.016724 1.0613289 1.0268283 1.0551021
000290 7e b3 7e 3f 4b ec 80 3f ae c0 85 3f c3 a2 89 3f
       0.99492633 1.0072111 1.0449426 1.0752796
0002a0 ca ca 87 3f 2b ce 80 3f 70 d1 84 3f d3 b2 80 3f
       1.0608761 1.0062917 1.0376415 1.0054573
0002b0 2b 80 81 3f 07 ee 83 3f d1 dd 81 3f 86 c8 7b 3f
       1.0117239 1.0307015 1.0145818 0.9835285
0002c0 c5 b4 7e 3f 60 4e 83 3f fd 2b 85 3f fd 0d 7e 3f
       0.9949458 1.0258293 1.0404049 0.99240094
0002d0 15 c1 86 3f 5e 4b 83 3f 0a 0f 80 3f f3 53 82 3f
       1.0527674 1.0257375 1.000459 1.0181869
0002e0 48 6b 87 3f 2d 36 82 3f 30 42 7f 3f 44 de 84 3f
       1.0579615 1.0172783 0.9971037 1.038033
0002f0 d8 9c 80 3f 08 46 83 3f 3d 7c 8a 3f 1d b5 80 3f
       1.0047865 1.0255747 1.0819165 1.0055271
000300 e9 4f 7f 3f 28 1b 7b 3f 5c 93 85 3f ba 84 83 3f
       0.9973131 0.9808831 1.0435596 1.027488
000310 8e 5b 81 3f b1 4e 81 3f 91 6a 7e 3f e2 b3 80 3f
       1.0106065 1.010214 0.9938136 1.0054896
000320 22 21 83 3f c5 a0 85 3f ae 5a 81 3f 11 d7 82 3f
       1.0244486 1.0439688 1.0105798 1.0221883
000330 69 3c 81 3f 91 ff 82 3f 77 86 7f 3f 09 03 83 3f
       1.0096561 1.0234243 0.9981455 1.0235301
000340 a6 6e 7d 3f 07 73 81 3f 5a 6b 84 3f c2 1b 83 3f
       0.9899696 1.0113229 1.0345261 1.0242846
000350 af 94 83 3f c3 4d 82 3f 47 cc 7d 3f 65 58 80 3f
       1.027975 1.0179981 0.9913983 1.0026976
000360 f2 9a 87 3f a0 40 81 3f aa 1f 82 3f 91 6a 82 3f
       1.059416 1.0097847 1.0165913 1.0188771
000370 6b a6 87 3f 00 3c 80 3f 4e 92 88 3f 52 0a 84 3f
       1.0597662 1.001831 1.0669649 1.031565
000380 ca a2 82 3f 03 30 7e 3f b8 bd 7e 3f 16 e8 7b 3f
       1.0205929 0.9929201 0.9950824 0.9840101
000390 b9 2d 7b 3f e9 8f 83 3f ed 67 82 3f 8f 50 7e 3f
       0.9811664 1.0278293 1.0187966 0.9934167
0003a0 21 a5 82 3f 89 96 7a 3f 10 61 84 3f 82 a4 7f 3f
       1.0206643 0.9788595 1.0342121 0.99860394
0003b0 1a 68 84 3f df d2 7c 3f 54 01 8a 3f d2 12 81 3f
       1.0344269 0.98759264 1.0781655 1.0083869
0003c0 02 a1 84 3f 89 01 81 3f 12 ba 80 3f b1 84 82 3f
       1.0361636 1.0078593 1.0056784 1.0196744
0003d0 44 6f 81 3f 68 21 80 3f 25 70 82 3f a4 d6 87 3f
       1.011208 1.0010195 1.0190474 1.0612378
0003e0 28 a5 85 3f aa 24 90 3f 3a c9 79 3f a4 e5 7d 3f
       1.0441027 1.1261189 0.9757267 0.9917853
0003f0 4f a0 7f 3f a4 44 85 3f 41 9a 83 3f 42 42 86 3f
       0.99853987 1.0411572 1.028145 1.048897

bidirectional_1/backward_lstm_1/lstm_cell_8/bias f4 [512]
000000 d1 bb c8 3c 47 a5 08 bc 29 dd 35 3b a0 78 41 bc
       0.02450362 -0.008340186 0.002775023 -0.011808544
000010 16 07 b1 3c 04 ea 34 bb 3e 50 3d 3d 9d 4c 50 3c
       0.021609824 -0.0027605304 0.046219103 0.0127135785
000020 32 10 fd 3c bb c5 39 3b 47 dc 82 3d 34 3d cc ba
       0.030891512 0.0028346616 0.06389671 -0.0015582205
000030 ad 34 6d bc 93 1e be bc 80 df df b9 ca b0 8d bc
       -0.014477891 -0.023207938 -0.00042700395 -0.017296214
000040 a9 65 8e bb 66 ca 5c 3c 60 29 f3 bb e8 1a 7b bd
       -0.004345615 0.01347599 -0.007420704 -0.061304957
000050 e6 cc c1 bd 26 c3 5c bb 2d 0a 12 3c 3c 9b 87 bb
       -0.094629094 -0.0033685653 0.008913559 -0.0041383784
000060 91 c0 1b bd 19 35 95 3c 14 90 f5 3c 80 8d c8 bc
       -0.038025443 0.018213795 0.029975928 -0.024481535
000070 78 b8 33 ba 37 4e d7 bd 44 21 bc bc b4 c6 f5 bb
       -0.0006855796 -0.10512965 -0.022965081 -0.007500494
000080 f5 d4 ba bb c7 df 72 bc 8f 95 32 bb e9 ad 0d 3d
       -0.005701656 -0.0148238605 -0.0027249788 0.03458968
000090 3f d9 5a bc 50 8c cf 3c 5d c6 47 3d f7 8d 4f 3c
       -0.01335746 0.02533546 0.04877316 0.012668124
0000a0 c0 35 3a 3d 0e 45 ed 3c 58 97 76 3c 3d b2 39 3d
       0.045461416 0.028963592 0.015050732 0.045335997
0000b0 c8 02 15 3d 9e 9f 47 3c f5 8b c0 bb f5 e7 25 bb
       0.036379606 0.012184052 -0.005876059 -0.002531526
0000c0 a5 66 a2 bc 92 66 34 bc 44 3b c0 bc 72 e4 e1 bc
       -0.019824335 -0.011010783 -0.02346576 -0.027574752
0000d0 b4 54 d9 bc c4 41 93 bc 7d 4c c2 ba ae d1 46 bb
       -0.026529647 -0.017975695 -0.0014823821 -0.0030337381
0000e0 ae 52 8c 3d d7 30 89 3d 30 87 f3 3c d7 de f5 bb
       0.068517074 0.066987686 0.029727548 -0.007503371
0000f0 b8 1e 34 3d 30 17 01 bc 7c 4d b4 3c a4 e3 eb 3c
       0.04397461 -0.0078790635 0.022009604 0.028795071
000100 b3 81 73 bb 7d 67 0e bd fe 73 c1 bb c9 06 01 bd
       -0.0037156164 -0.034766663 -0.00590372 -0.03150061
000110 51 8a 8a 3c 0c d1 86 bd 58 d8 62 3d 1d b1 ef 3b
       0.016911658 -0.06582841 0.055382103 0.0073148147
000120 fb db ab 3c 1e d6 1b 3d 30 92 6c bb 58 12 ad bc
       0.020978918 0.038045995 -0.0036097877 -0.021126911
000130 dd b9 83 bc d3 22 7b 3d 29 53 86 3d 06 c8 7c bc
       -0.016079837 0.061312508 0.0655883 -0.015428549
000140 aa 57 7c 3d e8 b6 17 bd a6 9c 89 bc bd 42 2b 3b
       0.06160704 -0.037039667 -0.016798329 0.0026132308
000150 91 22 8d bc ca 1b 83 3a 34 fb 24 3d 66 b9 a5 3b
       -0.017228397 0.0010002789 0.04027863 0.0050575016
000160 4b 77 4f bc 10 a2 c2 33 e8 3e b2 3c 1e 6c ae bb
       -0.012662719 9.063308e-08 0.021758512 -0.005322947
000170 81 5a ee bc 2a a1 8f 39 da 99 04 3d f2 94 34 3d
       -0.02909589 0.00027395162 0.032373287 0.044087358
000180 2d 0d 53 3b df 51 d6 3c 82 42 7f 3b 49 70 23 3d
       0.0032203898 0.026162086 0.0038949554 0.039902005
000190 0d 89 63 bc 4a 19 0a 3d ba fd a1 3c 57 d3 3e bc
       -0.013887656 0.033715524 0.019774307 -0.011647067
0001a0 88 4a 4b 3c fa cd 9e bb 88 2f 8a 3c a9 c9 5f 3b
       0.012407906 -0.0048463317 0.016868368 0.0034147298
0001b0 a8 d0 ae 3b f7 01 cb bc c9 90 36 3c 7e 38 95 39
       0.0053349324 -0.02478121 0.011142918 0.00028461585
0001c0 b7 73 52 3d 3c 2d 09 bd d5 d8 75 bb ca 37 96 bc
       0.051379886 -0.033490404 -0.0037513275 -0.01833715
0001d0 1e f3 7f 3c 92 68 2d bd 62 80 80 bd bc 8d 9e bc
       0.0156219285 -0.042336054 -0.06274487 -0.019354694
0001e0 b2 4d f7 3b d1 1a 31 bd e0 fd dc ba c2 ae 2a bc
       0.007547104 -0.043238465 -0.0016860329 -0.010417642
0001f0 49 2c 44 bd 0d a3 a1 bb b9 3f f8 3c f3 cc 17 3c
       -0.047893796 -0.0049327672 0.030303823 0.009265172
000200 78 60 83 3f 10 f7 82 3f 75 dd 87 3f 9f 60 84 3f
       1.0263815 1.0231647 1.0614458 1.0341986
000210 5a cd 86 3f 6d ca 80 3f f5 23 85 3f 41 11 84 3f
       1.0531418 1.0061775 1.0401598 1.0317765
000220 3a 1d 80 3f 67 e5 80 3f dd 6a 85 3f 55 85 86 3f
       1.0008919 1.0070008 1.0423237 1.050944
000230 35 34 80 3f a8 25 7d 3f 20 b3 80 3f ea 95 80 3f
       1.0015932 0.98885584 1.0054665 1.004575
000240 14 89 80 3f 5e 0d 86 3f 69 c8 88 3f e3 31 88 3f
       1.0041833 1.0472829 1.068616 1.0640224
000250 7a 08 8b 3f bd 93 87 3f 33 2f 80 3f 01 04 7f 3f
       1.0861962 1.0591961 1.0014404 0.99615484
000260 cb 70 89 3f ca a4 83 3f c9 4f 88 3f fb 42 7c 3f
       1.0737547 1.0284665 1.0649348 0.98539704
000270 40 6a 84 3f af d4 82 3f 45 b9 7e 3f 09 52 7f 3f
       1.0344925 1.0221156 0.9950145 0.9973455
000280 ab 1b 82 3f c7 df 81 3f d3 a4 7e 3f b2 90 83 3f
       1.0164694 1.0146416 0.9947025 1.0278533
000290 34 f0 7d 3f b9 f8 7f 3f 92 9f 80 3f 4e f3 7e 3f
       0.99194646 0.99988896 1.0048697 0.99590003
0002a0 f8 4c 86 3f 06 43 86 3f a5 81 81 3f 5f f3 85 3f
       1.0492239 1.0489204 1.0117689 1.0464896
0002b0 a6 20 83 3f ed d9 83 3f 85 9d 84 3f 09 8b 83 3f
       1.0244339 1.0300881 1.0360571 1.0276805
0002c0 75 41 83 3f a6 19 84 3f 3e 84 80 3f f9 f4 81 3f
       1.0254351 1.0320327 1.0040357 1.0152885
0002d0 90 3f 82 3f 73 53 87 3f f7 d8 80 3f 6e b4 82 3f
       1.0175648 1.0572342 1.0066212 1.0211313
0002e0 39 a9 88 3f b7 b5 8b 3f 9c 09 85 3f 64 53 84 3f
       1.0676643 1.091483 1.0393558 1.0337949
0002f0 72 25 86 3f 96 bb 83 3f 1b bd 7f 3f 51 2d 84 3f
       1.0480177 1.0291622 0.9989793 1.032633
000300 29 80 82 3f 45 59 80 3f a6 18 89 3f 02 a1 88 3f
       1.0195361 1.0027243 1.0710647 1.0674136
000310 c1 ea 7c 3f 98 48 87 3f 89 c3 86 3f ff 7e 81 3f
       0.98795706 1.0569029 1.0528423 1.0116881
000320 91 1c 82 3f f2 08 81 3f 77 41 82 3f 17 1e 81 3f
       1.0164968 1.0080855 1.0176228 1.0087308
000330 d9 c4 82 3f b3 3a 7f 3f ba 32 85 3f ef f8 83 3f
       1.0216323 0.9969894 1.0406106 1.0310344
000340 5b 58 82 3f a8 0a 81 3f 7b 64 84 3f 36 c1 81 3f
       1.0183214 1.0081377 1.0343164 1.0137088
000350 d2 d0 7d 3f a4 05 83 3f 1c 3b 87 3f bf 9d 84 3f
       0.9914676 1.0236096 1.0564914 1.036064
000360 8b 17 82 3f dc 4d 7e 3f 8e 90 84 3f cc 73 7c 3f
       1.0163435 0.99337554 1.0356615 0.9861419
000370 9e c7 7c 3f 01 90 7d 3f f5 7a 84 3f 53 fc 82 3f
       0.9874209 0.9904786 1.0350024 1.0233253
000380 11 6d 7f 3f 0e ce 85 3f 4b 6c 7e 3f 72 96 86 3f
       0.997758 1.0453508 0.9938399 1.0514662
000390 2f 36 85 3f a6 99 84 3f a0 d7 84 3f 43 b8 81 3f
       1.040716 1.035939 1.0378304 1.0134357
0003a0 9c 91 80 3f b8 8c 81 3f e0 e6 7e 3f 0e d8 81 3f
       1.0044436 1.0121069 0.9957104 1.014406
0003b0 ef 67 81 3f ec 0b 7e 3f e7 ef 81 3f ee ec 81 3f
       1.0109843 0.9923694 1.0151337 1.015043
0003c0 b9 50 86 3f 1f 0b 7a 3f 0e 50 80 3f 64 bd 80 3f
       1.0493385 0.9767322 1.0024431 1.0057797
0003d0 f0 df 81 3f 0b 46 81 3f 6a 96 89 3f c8 79 7d 3f
       1.0146465 1.00995 1.0749028 0.9901395
0003e0 5c 16 81 3f a2 a9 82 3f ee 53 80 3f b2 24 82 3f
       1.0084949 1.0208018 1.0025613 1.0167449
0003f0 f8 73 7b 3f 61 29 81 3f e5 92 80 3f 42 42 80 3f
       0.9822383 1.0090753 1.0044829 1.002022

std.constant6 f4 [128, 256]
000000 74 f6 01 3e 01 c4 95 3d 19 ba ab bd f8 7d f3 bc
       0.1269167 0.073127754 -0.08385105 -0.029723153
000010 37 18 c0 bc 48 18 2d 3c 7f c0 a6 bd 8a 06 f4 bd
       -0.023449047 0.010564871 -0.081421845 -0.1191531
000020 db 8f 1c 3c 13 ac e9 bd f0 f9 10 3e dc 49 a0 3d
       0.009555782 -0.11409774 0.14157844 0.078265876
000030 4c 24 0b 3d cd 72 da bb 73 df d0 3d b3 5f 8e 3d
       0.033970162 -0.0066665174 0.101988696 0.06951847
000040 ee 58 01 3e 7b f4 b9 bd 7e e2 40 3d d9 22 bc 3c
       0.1263158 -0.09079834 0.047091 0.022965835
000050 96 ab b8 3d 7a 52 35 3c e0 b9 a1 3c a1 2c a7 bd
       0.090171024 0.011067027 0.019741952 -0.08162809
000060 1e 6d 2b 3d 21 2f 2a 3e b0 ba 15 3d 70 83 0f 3e
       0.04185211 0.16619541 0.036554992 0.14014983
000070 bc 13 82 bd e6 76 ee 3d 18 2f 6e bd 01 79 a6 3d
       -0.0635142 0.11643772 -0.05815038 0.081285484
000080 0f 9b c5 3d 1f f1 1b bc 52 15 ec 3d 91 bd a2 bd
       0.09648716 -0.009517937 0.11527504 -0.07946313
000090 7d 01 a8 3d 89 66 ca bd eb 41 83 3d 54 21 71 bc
       0.08203409 -0.09882838 0.06409057 -0.014717419
0000a0 64 c2 84 bd 09 e2 6b 3d 31 5a d1 3c 62 27 57 bd
       -0.064823896 0.05758861 0.025555702 -0.052527793
0000b0 6a a3 f9 bd c2 39 eb bd 03 ac c5 3c ca 5f d7 bd
       -0.12189372 -0.11485626 0.024129873 -0.10516317
0000c0 4d d0 0f 3e c7 79 7d bd 81 5f 9d 3d 4e 37 e8 3d
       0.14044304 -0.061883714 0.076842315 0.113386735
0000d0 31 ef 75 3d 7b 04 eb 3c 1b 2f 45 3d 7f 15 06 bd
       0.060042564 0.02868866 0.048140626 -0.032735344
0000e0 7a 93 7f bb be 7b 4b 3d 21 44 d4 bd 36 1b 8a bc
       -0.0038997815 0.049678557 -0.10364557 -0.016858678
0000f0 51 00 05 3e eb d3 e3 bd 06 0d 71 bd 85 5a 02 be
       0.12988402 -0.111244045 -0.05885031 -0.12729843
000100 b7 53 63 bd b5 da 6b bd 13 11 d8 bd ee 62 7c 3d
       -0.05549976 -0.057581622 -0.10550132 0.061617784
000110 db 61 10 3e 08 6c e2 bc fa 6f b2 3d 51 3b e9 bd
       0.14099829 -0.027639404 0.08712764 -0.11388267
000120 48 d4 7f 3c 71 6d 09 bd f8 1f 3b bd 14 6b a1 bc
       0.015614577 -0.033551637 -0.045684785 -0.01970438
000130 8e 60 16 bc 95 dd 3a bd ff 57 70 3d d6 80 8c 3d
       -0.009178294 -0.045621473 0.05867767 0.06860511
000140 6e 4a e0 bd eb 9d 5b bd 3d 01 66 3d 5b 26 05 3d
       -0.10951696 -0.0536174 0.056153525 0.03250728
000150 ce 35 86 bd 79 2d cb 3d 34 ca 81 3d 45 4c 11 3c
       -0.06553231 0.099207826 0.06337395 0.008868282
000160 73 e7 5f bc ee 35 63 bc 59 4f 1c bd 73 dd 34 3d
       -0.013666022 -0.013867838 -0.03816161 0.044156503
000170 5a 82 88 3c 5a fc ad bd 1a f1 6e 3d 40 7a 59 3d
       0.016663719 -0.08495398 0.0583354 0.053095102
000180 d9 f2 12 3e b0 41 b1 3c 24 de b2 3d 97 e6 54 3d
       0.14350452 0.021637768 0.08733776 0.05197772
000190 e2 d4 e1 bd ce ab 08 3e 49 0a 84 3d 1f 37 68 3d
       -0.11026932 0.13346788 0.06447274 0.056693193
0001a0 d2 fe 3b 3d a6 30 e6 bd 8b c4 bd 3d cf ef a8 bd
       0.045897312 -0.11239748 0.09266003 -0.08248865
0001b0 ec 38 b4 bd 20 fc 28 bd 0c 1d d5 3b 25 ae 99 bd
       -0.087999195 -0.04125607 0.006503707 -0.075039186
0001c0 1d c9 b5 3d 3f 64 87 3d 13 dc b5 bd 4b 12 04 3e
       0.0887625 0.06610917 -0.088798665 0.12897603
0001d0 78 7e e4 bd ec 7b c6 bd c7 e8 26 bb 28 90 a2 3d
       -0.111569345 -0.09691605 -0.0025468336 0.07937652
0001e0 9e 4a 6d ba 4f 6e 38 bc ce ef dd bc 1b 97 cb 3c
       -0.00090519513 -0.011256768 -0.027091887 0.024852326
0001f0 11 1a 9a bc 67 d7 09 be e6 9f 45 3d 98 2d d3 3c
       -0.018811258 -0.13461076 0.048248194 0.025778577
000200 bf fa ff 3c cb b5 c8 3b 2f 9f ae bd d5 10 03 3e
       0.031247495 0.006125187 -0.085264556 0.1279939
000210 71 86 66 bd e7 31 19 3d 4c 83 82 3d 86 e4 c8 bc
       -0.056280557 0.037401106 0.06372699 -0.024523031
000220 fd cb 65 bd df c2 81 3c 4d 57 5e 3b f6 b6 d3 3c
       -0.05610274 0.015839992 0.0033926547 0.025844079
000230 7a 06 78 bd 04 28 9c 3d b5 5f 99 3d da c0 e9 bc
       -0.06055305 0.0762482 0.07488958 -0.028534342
000240 fa 73 fb 3d 3d 18 e3 3d 4d 76 9e bd 61 71 2a bd
       0.1227798 0.110886075 -0.07737408 -0.041612033
000250 6b 72 2f 3e bd 4b a4 bd 13 ef ac 3d af 72 a3 bc
       0.1713349 -0.080222584 0.08444037 -0.019952146
000260 66 a0 f7 3c 65 6f ec bd 28 23 a5 3d 59 a8 1c 3d
       0.030227851 -0.11544684 0.08063346 0.038246486
000270 6f 26 93 3d f3 13 fe bb 24 fd 5d bc 23 7a 27 be
       0.07185065 -0.007753843 -0.013549123 -0.16355185
000280 5f 69 e7 bc 04 74 9e 3d bd 24 58 3b 26 58 13 be
       -0.028248487 0.07736972 0.0032980882 -0.14389095
000290 28 bc 8f 3d 2b 98 e9 3d f8 2e 16 bc b8 ab 75 bd
       0.0701831 0.11405977 -0.009166472 -0.059978217
0002a0 cb c5 20 3d 07 50 93 3d 47 bb 40 3d 52 cd 0e 3d
       0.03925113 0.071929984 0.0470536 0.034863777
0002b0 45 e9 22 ba 4f a4 ab 3d de f1 c4 ba 2b 95 1d 3e
       -0.00062145694 0.08380949 -0.0015025695 0.15388934
0002c0 b2 b1 b9 bc 4d 33 9a bd d9 2f eb bd 53 37 0d bd
       -0.02266774 -0.07529316 -0.114837356 -0.03447659
0002d0 0c 6b 84 bc e3 52 18 3c 44 d0 69 3d 99 51 cf 3d
       -0.016164325 0.0092971055 0.057083383 0.101229854
0002e0 19 d0 c0 bd c5 7f d4 3d 0b 2f 66 bd 7e 59 f7 3d
       -0.094146915 0.103759326 -0.056197207 0.12077616
0002f0 70 f9 6c 3c d5 3c d1 3d 74 35 1b 3d d9 70 df 3c
       0.014463767 0.10216681 0.037892774 0.02727549
000300 c4 b8 45 bd 51 d6 22 3e 9d ef 53 bb 03 3a 7b bd
       -0.04827191 0.15902068 -0.0032338866 -0.06133462
000310 dd 70 bd bb 0f f2 0e be 23 f0 f0 3d f0 3d cb bd
       -0.0057812766 -0.13959526 0.117645524 -0.09923923
000320 52 87 29 3d 75 5b 31 3d f2 7d 5e bc 69 58 62 bd
       0.041388817 0.04330011 -0.013579832 -0.055260096
000330 28 bc 74 bc 46 f0 cc bc ec 9c 6e 3b 48 dc a9 bc
       -0.014937438 -0.025016915 0.003640945 -0.020734921
000340 08 3c d9 bd f8 22 2f bd 25 89 c1 3d 32 af e4 3d
       -0.10607153 -0.04275796 0.09449986 0.11166228
000350 e6 84 04 bd c9 84 2d bc 27 c8 aa bd 31 8f 5c bd
       -0.032353304 -0.0105907405 -0.08338957 -0.053847495
000360 67 a5 8e bd ff 9a a0 3c c5 b9 2f be 8e ac 19 be
       -0.06965142 0.019605158 -0.17160709 -0.1500723
000370 b1 08 26 3e ae e0 8c 3d b4 cb c6 bd 22 75 34 3d
       0.16214253 0.06878792 -0.09706822 0.04405702
000380 c1 51 ae bd 0d e7 0f bd d0 94 5c bd 40 00 08 3c
       -0.08511687 -0.035132457 -0.053852856 0.008300841
000390 0d fa bc bd ca bd b3 bc f2 4d 16 3d 94 12 85 3c
       -0.09227381 -0.021941084 0.03669543 0.01624421
0003a0 c4 15 c8 3d 5a 55 ae bc c7 2a 19 be 2f 3a 7a bd
       0.097697765 -0.021280933 -0.14957725 -0.061090644
0003b0 e4 a6 98 3d 29 39 b5 3d 1f f0 f8 bd df 57 a7 bd
       0.07453707 0.08848793 -0.121551745 -0.08171057
0003c0 48 67 a9 3d 46 49 f3 bb 3f da 9a bd 5f a8 3c 3d
       0.082716525 -0.0074245064 -0.075611584 0.04605901
0003d0 75 bc ee 3c 34 a4 f7 bd 68 8d 4b be ce cc 09 bb
       0.029142598 -0.12091866 -0.19878161 -0.0021026614
0003e0 37 95 31 bd a5 bf 09 be 98 f6 d2 3d 81 54 01 be
       -0.043355193 -0.13452013 0.1030094 -0.12629892
0003f0 a3 0b 91 3c 8e 23 39 3e 13 da ad bd 16 64 dc 3d
       0.017705744 0.1807997 -0.0848886 0.107612774

std.constant7 f4 [11, 128]
000000 a0 78 4d 3e 5a e6 d9 3c f3 6a b6 3c 84 7e 5b be
       0.20065546 0.026599098 0.022267794 -0.2143498
000010 51 8c 57 be 37 cd 71 bd f6 b1 34 3e df 13 34 be
       -0.2104962 -0.0590336 0.17646012 -0.17585705
000020 9c 27 a1 bd bb 84 61 bc 78 a6 9c bd ea bd ba bd
       -0.07868883 -0.013764556 -0.07648939 -0.091182545
000030 87 67 15 be 64 d9 bf bd e8 b5 03 3e 27 05 08 3e
       -0.14590274 -0.09367636 0.1286236 0.13283215
000040 9e 04 4c bd 57 6d 25 3e 13 b1 76 bd ff 57 53 be
       -0.04980909 0.16154991 -0.060227465 -0.20639037
000050 11 37 06 be fa 6e dd bd c3 9d 06 3e 8a 25 2f 3c
       -0.13106944 -0.10812183 0.13146119 0.010690102
000060 f3 93 1d 3e 84 b5 83 be 44 12 ea bd de ac 1f 3e
       0.1538847 -0.25724423 -0.11429265 0.15593287
000070 75 e7 d1 bd d2 f8 9f bd 96 06 aa bd 14 b0 70 3e
       -0.10249225 -0.078111306 -0.083020374 0.23504668
000080 c6 44 0e be d2 30 61 3e c8 03 71 bd e5 5d 12 3d
       -0.13893422 0.2199128 -0.058841497 0.035734076
000090 e1 e4 0f be 27 f9 2e 3e 95 12 46 3d 96 41 92 bd
       -0.14052154 0.17087232 0.048357565 -0.07141416
0000a0 82 97 8b bd 27 4b 18 3e 9c 70 3b 3d bf 6b 83 be
       -0.06816007 0.14872418 0.04576169 -0.2566814
0000b0 0c 66 76 be 6f 21 e7 bd c7 99 cf bd 08 62 7f 3e
       -0.24062365 -0.11285674 -0.101367526 0.2493974
0000c0 99 94 a4 3c 60 97 27 3e 39 dd 74 3b be bc b0 3d
       0.020090388 0.16366339 0.0037363304 0.0862975
0000d0 3d 12 91 3d 8a 2c 14 bc 5b 4a b0 3d 4c 2c 03 3d
       0.07083557 -0.009043822 0.08607932 0.032024667
0000e0 a7 10 7e 3c 2a 39 07 be e6 ff bf 3b 05 d8 11 bd
       0.0155069 -0.132054 0.005859363 -0.035606403
0000f0 30 ad 2d be be ee 2f be 5b 44 d5 bd 7e 8f fc 3d
       -0.16960597 -0.17180917 -0.104134284 0.123320565
000100 63 80 0a be be 98 4a 3d 81 f4 aa 3d 64 ef 70 3e
       -0.13525538 0.049462073 0.08347417 0.2352882
000110 76 11 53 be 96 e5 7c 3e 69 4c 79 be 3d dd 22 be
       -0.2061213 0.24696955 -0.24345554 -0.15904708
000120 09 95 c1 bc 2c 1e 10 3d 12 07 1e 3e c2 77 cf 3a
       -0.023630636 0.035185024 0.15432385 0.0015828537
000130 b4 39 2e 3e 8c 6c 43 3e e5 cb 65 3e dd c6 1f be
       0.170142 0.19084376 0.22441061 -0.15603204
000140 f6 9c 61 3e 7e fd 55 3e 28 df 9b bd f7 35 f2 bd
       0.22032532 0.20897481 -0.07610923 -0.11826699
000150 cb 14 bd bd e1 63 69 3e 14 f1 4d bd 70 8b 32 3e
       -0.092324816 0.22792007 -0.05027874 0.17436004
000160 70 ce a8 bc 60 b0 34 3e ef d2 20 3e 82 bd 55 3d
       -0.02060625 0.17645407 0.15705465 0.05218268
000170 6c 4d 06 3e 1e 5e e1 3c 80 b6 6e 3d e4 e7 fb bd
       0.13115472 0.027510699 0.058279514 -0.12300089
000180 d5 8b 92 bd cb ba 4d 3e 01 e7 4a 3e de 32 83 bd
       -0.07155577 0.20090787 0.19814683 -0.064061865
000190 5a 6a 22 3d 86 0d 19 bc 01 20 3a 3d 04 d7 7f 3e
       0.039652206 -0.009341603 0.045440678 0.24984366
0001a0 fc 1e 47 3e 2e bb 92 3d 19 bf 09 3e 54 42 93 3b
       0.19445413 0.07164608 0.13451804 0.004493991
0001b0 b4 02 29 3b e6 d5 41 be 71 f7 94 bd 53 a8 d0 bd
       0.0025788965 -0.18929252 -0.07273758 -0.10188355
0001c0 86 1d b9 bc e1 a6 86 bd 5d a8 b6 3c e8 8f 80 3d
       -0.022597086 -0.065747984 0.022297079 0.06277448
0001d0 ba 86 fd 3c 88 f8 9a bd d2 d2 23 3e 05 a1 20 3c
       0.030948032 -0.07566935 0.1599839 0.009804015
0001e0 40 e5 1c 3e e0 ae 62 be d0 56 ef 3d b2 33 57 be
       0.15321827 -0.22137022 0.1168648 -0.21015814
0001f0 51 f1 69 3e 5b de ba bc 69 6d 34 3d d3 72 07 3e
       0.22845961 -0.022811105 0.044049654 0.13227396
000200 f2 1e 2b be 1f 3c 95 3e 07 c5 86 be 72 09 85 bc
       -0.16711023 0.2914743 -0.26322195 -0.016239855
000210 09 de 7a bd 0b f3 46 be 03 ec bf bd 38 56 37 bd
       -0.061246905 -0.19428651 -0.093711875 -0.04475996
000220 df bb c4 bd 16 08 75 3e 5e fd 02 3e 90 3f 4d be
       -0.09606146 0.23928866 0.12791964 -0.20043778
000230 4c c5 5b 3e 0b 48 4a 3e 11 f6 77 3e 94 7c 7c be
       0.21461982 0.19754045 0.2421496 -0.24656898
000240 65 a9 2c be 38 e8 37 3e ef cd cd bc 3f 50 3e be
       -0.16861494 0.17959678 -0.02512261 -0.18585299
000250 32 8e b7 bd 86 4a 09 3e ce 84 43 be f3 14 d1 3d
       -0.089626685 0.13407335 -0.1909363 0.10209074
000260 04 0c de bd 48 96 5b be 2d 6b 82 bd 63 ef 04 3e
       -0.108421355 -0.21444046 -0.063680984 0.12981944
000270 e7 68 8e 3e 46 3e 3b be 19 ef 87 3e 47 9e 6f bd
       0.2781441 -0.18285474 0.26549605 -0.058500554
000280 31 a1 ef bd 7d 29 5c bd 6c 28 1a 3e 7e ea 22 3e
       -0.11700667 -0.053750504 0.15054482 0.15909764
000290 a3 c5 5f 3e 1d 6b 6f bd a0 f5 ac bd 49 4d b7 bd
       0.21852736 -0.05845176 -0.08445287 -0.08950288
0002a0 2c 46 1a 3e 5a 46 4f be 21 57 b9 3c a1 50 ad 3d
       0.15065831 -0.2024168 0.022624554 0.08462644
0002b0 9e c0 25 be 82 13 23 3e 8e 69 6d 3e 6e f5 88 3e
       -0.16186759 0.1592541 0.23184797 0.26749748
0002c0 d3 aa 87 3e 82 e6 a2 3d de 14 6c 3c 87 dd 79 be
       0.26497516 0.07954122 0.014409272 -0.24400912
0002d0 47 80 11 be 56 29 97 bd 6b 34 74 3d 3a 7a 85 3d
       -0.1420909 -0.07380931 0.059620302 0.065174535
0002e0 b7 05 72 3e af e9 07 3e ba ad fc bd bc 8d 4d 3e
       0.23634993 0.13272737 -0.12337823 0.20073599
0002f0 a5 09 bc bd b1 e2 9c bd 3d 7a 3d 3d de 02 47 3d
       -0.09181527 -0.076604255 0.046259154 0.04858672
000300 6b 88 4b 3e 6f 05 9b bd 07 27 0d 3e 5b a5 da 3d
       0.19876258 -0.07569396 0.13784419 0.1067607
000310 e3 92 98 bc 30 a8 91 be d9 a2 4b 3e 4a a9 0a 3e
       -0.018624729 -0.2844863 0.1988634 0.13541141
000320 6f cc 98 3e 81 cb 51 be 3c bf 79 be 1a 40 e8 bd
       0.2984347 -0.20487787 -0.24389356 -0.113403514
000330 44 f5 93 3d 0f 92 74 be 88 17 19 be a2 45 8b 3e
       0.07224515 -0.23883842 -0.14950383 0.27201563
000340 c9 77 d3 3d 44 ec 00 3e 30 e4 3d 3e bc ba 38 bc
       0.103255816 0.12590128 0.18544078 -0.01127499
000350 94 50 c6 bd de 9e 82 3d bd b4 81 3e 08 d6 27 be
       -0.09683338 0.06377958 0.25333205 -0.1639024
000360 9b c9 57 bc b4 06 53 be 5c 85 63 be 72 06 75 bd
       -0.013170625 -0.20608026 -0.22218841 -0.0598206
000370 2a 90 45 be e6 eb 46 3e 9a a6 d9 3d 95 34 df 3d
       -0.19293275 0.19425926 0.1062748 0.10898701
000380 26 cc 1c 3e 79 e9 1c be e8 5e 2c be 38 c2 02 3e
       0.15312251 -0.15323438 -0.16833079 0.12769401
000390 d5 e3 8a 3e df 68 59 bb 71 14 5b 3e b2 c4 2f 3e
       0.27126947 -0.003317408 0.21394517 0.17164877
0003a0 ac af ae 3d 81 0a 8b be 4b 6f 93 be fa 7a 2b be
       0.085296005 -0.2715645 -0.28795847 -0.1674613
0003b0 31 6f 93 3c 3e 8f 71 3e 67 78 93 3d 52 a5 20 3e
       0.017997356 0.23589799 0.07200699 0.15688065
0003c0 aa c6 48 bd a2 6e 62 be 79 57 15 be a0 61 17 be
       -0.049017586 -0.22112516 -0.1458415 -0.14783335
0003d0 d7 0a f8 3b ea f3 56 3e af 43 ff 3a 06 c8 60 be
       0.0075696516 0.20991483 0.0019475127 -0.21951303
0003e0 87 fe e2 bd dc 1e 2c be 93 75 58 be d5 18 7c bc
       -0.110837035 -0.16808647 -0.21138601 -0.01538678
0003f0 a9 b3 9a bd b9 c6 84 3d bb 79 b1 bc 62 cc 5d 3e
       -0.07553799 0.06483216 -0.02166449 0.21659997

bidirectional_1/backward_lstm_1/lstm_cell_8/bias1 f4 [512]
000000 d1 bb c8 3c 47 a5 08 bc 29 dd 35 3b a0 78 41 bc
       0.02450362 -0.008340186 0.002775023 -0.011808544
000010 16 07 b1 3c 04 ea 34 bb 3e 50 3d 3d 9d 4c 50 3c
       0.021609824 -0.0027605304 0.046219103 0.0127135785
000020 32 10 fd 3c bb c5 39 3b 47 dc 82 3d 34 3d cc ba
       0.030891512 0.0028346616 0.06389671 -0.0015582205
000030 ad 34 6d bc 93 1e be bc 80 df df b9 ca b0 8d bc
       -0.014477891 -0.023207938 -0.00042700395 -0.017296214
000040 a9 65 8e bb 66 ca 5c 3c 60 29 f3 bb e8 1a 7b bd
       -0.004345615 0.01347599 -0.007420704 -0.061304957
000050 e6 cc c1 bd 26 c3 5c bb 2d 0a 12 3c 3c 9b 87 bb
       -0.094629094 -0.0033685653 0.008913559 -0.0041383784
000060 91 c0 1b bd 19 35 95 3c 14 90 f5 3c 80 8d c8 bc
       -0.038025443 0.018213795 0.029975928 -0.024481535
000070 78 b8 33 ba 37 4e d7 bd 44 21 bc bc b4 c6 f5 bb
       -0.0006855796 -0.10512965 -0.022965081 -0.007500494
000080 f5 d4 ba bb c7 df 72 bc 8f 95 32 bb e9 ad 0d 3d
       -0.005701656 -0.0148238605 -0.0027249788 0.03458968
000090 3f d9 5a bc 50 8c cf 3c 5d c6 47 3d f7 8d 4f 3c
       -0.01335746 0.02533546 0.04877316 0.012668124
0000a0 c0 35 3a 3d 0e 45 ed 3c 58 97 76 3c 3d b2 39 3d
       0.045461416 0.028963592 0.015050732 0.045335997
0000b0 c8 02 15 3d 9e 9f 47 3c f5 8b c0 bb f5 e7 25 bb
       0.036379606 0.012184052 -0.005876059 -0.002531526
0000c0 a5 66 a2 bc 92 66 34 bc 44 3b c0 bc 72 e4 e1 bc
       -0.019824335 -0.011010783 -0.02346576 -0.027574752
0000d0 b4 54 d9 bc c4 41 93 bc 7d 4c c2 ba ae d1 46 bb
       -0.026529647 -0.017975695 -0.0014823821 -0.0030337381
0000e0 ae 52 8c 3d d7 30 89 3d 30 87 f3 3c d7 de f5 bb
       0.068517074 0.066987686 0.029727548 -0.007503371
0000f0 b8 1e 34 3d 30 17 01 bc 7c 4d b4 3c a4 e3 eb 3c
       0.04397461 -0.0078790635 0.022009604 0.028795071
000100 b3 81 73 bb 7d 67 0e bd fe 73 c1 bb c9 06 01 bd
       -0.0037156164 -0.034766663 -0.00590372 -0.03150061
000110 51 8a 8a 3c 0c d1 86 bd 58 d8 62 3d 1d b1 ef 3b
       0.016911658 -0.06582841 0.055382103 0.0073148147
000120 fb db ab 3c 1e d6 1b 3d 30 92 6c bb 58 12 ad bc
       0.020978918 0.038045995 -0.0036097877 -0.021126911
000130 dd b9 83 bc d3 22 7b 3d 29 53 86 3d 06 c8 7c bc
       -0.016079837 0.061312508 0.0655883 -0.015428549
000140 aa 57 7c 3d e8 b6 17 bd a6 9c 89 bc bd 42 2b 3b
       0.06160704 -0.037039667 -0.016798329 0.0026132308
000150 91 22 8d bc ca 1b 83 3a 34 fb 24 3d 66 b9 a5 3b
       -0.017228397 0.0010002789 0.04027863 0.0050575016
000160 4b 77 4f bc 10 a2 c2 33 e8 3e b2 3c 1e 6c ae bb
       -0.012662719 9.063308e-08 0.021758512 -0.005322947
000170 81 5a ee bc 2a a1 8f 39 da 99 04 3d f2 94 34 3d
       -0.02909589 0.00027395162 0.032373287 0.044087358
000180 2d 0d 53 3b df 51 d6 3c 82 42 7f 3b 49 70 23 3d
       0.0032203898 0.026162086 0.0038949554 0.039902005
000190 0d 89 63 bc 4a 19 0a 3d ba fd a1 3c 57 d3 3e bc
       -0.013887656 0.033715524 0.019774307 -0.011647067
0001a0 88 4a 4b 3c fa cd 9e bb 88 2f 8a 3c a9 c9 5f 3b
       0.012407906 -0.0048463317 0.016868368 0.0034147298
0001b0 a8 d0 ae 3b f7 01 cb bc c9 90 36 3c 7e 38 95 39
       0.0053349324 -0.02478121 0.011142918 0.00028461585
0001c0 b7 73 52 3d 3c 2d 09 bd d5 d8 75 bb ca 37 96 bc
       0.051379886 -0.033490404 -0.0037513275 -0.01833715
0001d0 1e f3 7f 3c 92 68 2d bd 62 80 80 bd bc 8d 9e bc
       0.0156219285 -0.042336054 -0.06274487 -0.019354694
0001e0 b2 4d f7 3b d1 1a 31 bd e0 fd dc ba c2 ae 2a bc
       0.007547104 -0.043238465 -0.0016860329 -0.010417642
0001f0 49 2c 44 bd 0d a3 a1 bb b9 3f f8 3c f3 cc 17 3c
       -0.047893796 -0.0049327672 0.030303823 0.009265172
000200 78 60 83 3f 10 f7 82 3f 75 dd 87 3f 9f 60 84 3f
       1.0263815 1.0231647 1.0614458 1.0341986
000210 5a cd 86 3f 6d ca 80 3f f5 23 85 3f 41 11 84 3f
       1.0531418 1.0061775 1.0401598 1.0317765
000220 3a 1d 80 3f 67 e5 80 3f dd 6a 85 3f 55 85 86 3f
       1.0008919 1.0070008 1.0423237 1.050944
000230 35 34 80 3f a8 25 7d 3f 20 b3 80 3f ea 95 80 3f
       1.0015932 0.98885584 1.0054665 1.004575
000240 14 89 80 3f 5e 0d 86 3f 69 c8 88 3f e3 31 88 3f
       1.0041833 1.0472829 1.068616 1.0640224
000250 7a 08 8b 3f bd 93 87 3f 33 2f 80 3f 01 04 7f 3f
       1.0861962 1.0591961 1.0014404 0.99615484
000260 cb 70 89 3f ca a4 83 3f c9 4f 88 3f fb 42 7c 3f
       1.0737547 1.0284665 1.0649348 0.98539704
000270 40 6a 84 3f af d4 82 3f 45 b9 7e 3f 09 52 7f 3f
       1.0344925 1.0221156 0.9950145 0.9973455
000280 ab 1b 82 3f c7 df 81 3f d3 a4 7e 3f b2 90 83 3f
       1.0164694 1.0146416 0.9947025 1.0278533
000290 34 f0 7d 3f b9 f8 7f 3f 92 9f 80 3f 4e f3 7e 3f
       0.99194646 0.99988896 1.0048697 0.99590003
0002a0 f8 4c 86 3f 06 43 86 3f a5 81 81 3f 5f f3 85 3f
       1.0492239 1.0489204 1.0117689 1.0464896
0002b0 a6 20 83 3f ed d9 83 3f 85 9d 84 3f 09 8b 83 3f
       1.0244339 1.0300881 1.0360571 1.0276805
0002c0 75 41 83 3f a6 19 84 3f 3e 84 80 3f f9 f4 81 3f
       1.0254351 1.0320327 1.0040357 1.0152885
0002d0 90 3f 82 3f 73 53 87 3f f7 d8 80 3f 6e b4 82 3f
       1.0175648 1.0572342 1.0066212 1.0211313
0002e0 39 a9 88 3f b7 b5 8b 3f 9c 09 85 3f 64 53 84 3f
       1.0676643 1.091483 1.0393558 1.0337949
0002f0 72 25 86 3f 96 bb 83 3f 1b bd 7f 3f 51 2d 84 3f
       1.0480177 1.0291622 0.9989793 1.032633
000300 29 80 82 3f 45 59 80 3f a6 18 89 3f 02 a1 88 3f
       1.0195361 1.0027243 1.0710647 1.0674136
000310 c1 ea 7c 3f 98 48 87 3f 89 c3 86 3f ff 7e 81 3f
       0.98795706 1.0569029 1.0528423 1.0116881
000320 91 1c 82 3f f2 08 81 3f 77 41 82 3f 17 1e 81 3f
       1.0164968 1.0080855 1.0176228 1.0087308
000330 d9 c4 82 3f b3 3a 7f 3f ba 32 85 3f ef f8 83 3f
       1.0216323 0.9969894 1.0406106 1.0310344
000340 5b 58 82 3f a8 0a 81 3f 7b 64 84 3f 36 c1 81 3f
       1.0183214 1.0081377 1.0343164 1.0137088
000350 d2 d0 7d 3f a4 05 83 3f 1c 3b 87 3f bf 9d 84 3f
       0.9914676 1.0236096 1.0564914 1.036064
000360 8b 17 82 3f dc 4d 7e 3f 8e 90 84 3f cc 73 7c 3f
       1.0163435 0.99337554 1.0356615 0.9861419
000370 9e c7 7c 3f 01 90 7d 3f f5 7a 84 3f 53 fc 82 3f
       0.9874209 0.9904786 1.0350024 1.0233253
000380 11 6d 7f 3f 0e ce 85 3f 4b 6c 7e 3f 72 96 86 3f
       0.997758 1.0453508 0.9938399 1.0514662
000390 2f 36 85 3f a6 99 84 3f a0 d7 84 3f 43 b8 81 3f
       1.040716 1.035939 1.0378304 1.0134357
0003a0 9c 91 80 3f b8 8c 81 3f e0 e6 7e 3f 0e d8 81 3f
       1.0044436 1.0121069 0.9957104 1.014406
0003b0 ef 67 81 3f ec 0b 7e 3f e7 ef 81 3f ee ec 81 3f
       1.0109843 0.9923694 1.0151337 1.015043
0003c0 b9 50 86 3f 1f 0b 7a 3f 0e 50 80 3f 64 bd 80 3f
       1.0493385 0.9767322 1.0024431 1.0057797
0003d0 f0 df 81 3f 0b 46 81 3f 6a 96 89 3f c8 79 7d 3f
       1.0146465 1.00995 1.0749028 0.9901395
0003e0 5c 16 81 3f a2 a9 82 3f ee 53 80 3f b2 24 82 3f
       1.0084949 1.0208018 1.0025613 1.0167449
0003f0 f8 73 7b 3f 61 29 81 3f e5 92 80 3f 42 42 80 3f
       0.9822383 1.0090753 1.0044829 1.002022

std.constant16 f4 [512, 128]
000000 fc 27 ad 3a 3b 4a 97 3c ce e7 86 3d a2 71 b1 bc
       0.0013210769 0.018468013 0.06587182 -0.02166063
000010 d9 b1 14 3c 1e 12 8e bc 85 48 ae bd 63 c4 1e 3d
       0.009075605 -0.017342623 -0.08509926 0.038761508
000020 e9 75 bf 3d 77 f3 b1 3b ed d9 a3 3d 91 dc 8e 3b
       0.093486615 0.0054306346 0.080005504 0.0043597897
000030 58 38 4a 3d 25 6f 15 3d f3 8b c7 bd a8 dc ae bd
       0.04937014 0.03648295 -0.0974349 -0.085381806
000040 97 4d c6 3d 19 f9 b4 bc ea 6d 11 3d 3a 1f 31 3c
       0.09682768 -0.022091435 0.035505213 0.010810668
000050 d7 25 c1 bc 6d a0 dd 3c 1d c1 5e bd ef 9e 8d 3b
       -0.023577614 0.027054036 -0.054383386 0.004321925
000060 26 40 f0 bd 2a ed c4 bc 22 22 da bc 59 ed 8c bc
       -0.11730985 -0.02403887 -0.026627604 -0.01720302
000070 d8 e0 90 3d ad 43 f5 39 5b 4f a1 bd bb 96 aa 3c
       0.070741355 0.00046780464 -0.07876464 0.020823827
000080 16 7b 36 3d ed 62 cf 3b 9d 08 18 bc 9b 56 a2 bd
       0.044550978 0.0063289315 -0.009279397 -0.07926675
000090 44 c7 09 bd 51 e1 0b bd 51 60 9b bd f0 6c 29 3d
       -0.0336373 -0.034150425 -0.0758673 0.041363657
0000a0 f3 58 ac 3d 22 3f eb bc 7a ae 1b bc 3a fa e9 3c
       0.08415403 -0.028716628 -0.009502048 0.0285617
0000b0 b7 06 b3 bd 08 b0 82 3d f7 35 d4 3c 84 fa 5b 3d
       -0.08741515 0.063812315 0.025904639 0.053705707
0000c0 74 dc 52 3d 0e ad f6 b9 c2 ec 8f bd 60 10 2a bd
       0.05147977 -0.00047049712 -0.0702758 -0.041519523
0000d0 8f a9 53 3d ad 13 ef 3c d9 ee 2a 3d ce cf 70 3d
       0.051675376 0.029184187 0.04173169 0.058791928
0000e0 33 e4 c1 bd 7e 26 11 3d 33 cc 23 3c da 2f 1b 3d
       -0.09467354 0.0354371 0.009997415 0.03788743
0000f0 dc 56 53 bd 03 2e aa 3c 22 73 69 bc 7c 91 f3 3b
       -0.051596507 0.020773893 -0.014248641 0.0074331146
000100 57 d3 d9 b8 ac 06 99 3c c9 07 83 bd 3a d8 6f bd
       -0.000103867314 0.01867994 -0.06397969 -0.05855582
000110 0f e9 f9 bd 76 6f b6 3d ca 76 b2 bc 71 65 4d 3d
       -0.122026555 0.08907978 -0.021785159 0.05014557
000120 4e 34 bf 3c 91 e9 30 bc b0 a9 b3 3d 2b cf 44 bd
       0.02334037 -0.010797874 0.087726 -0.048049133
000130 8b dc b8 bd 42 bf 9d 3d 4c 3a c0 bc 9f 14 44 bc
       -0.0902644 0.07702495 -0.023465298 -0.011967807
000140 72 5c e3 3d 4b 40 d9 3c 35 0a db 3d c2 06 5c bd
       0.11101617 0.026519915 0.10695306 -0.053717382
000150 25 59 d5 bc 66 df 4d bb bb bd a5 bc d3 e3 9d 3d
       -0.026043484 -0.0031413673 -0.020232072 0.0770947
000160 0b cc 21 bd 3f af bf 3d 86 44 41 bd 5c e0 4a bc
       -0.03950123 0.093595974 -0.04718449 -0.012382593
000170 44 2a 13 3c af a5 8c b9 2b 19 e5 bc 12 e8 b7 bc
       0.008982245 -0.00026826325 -0.027966103 -0.022449527
000180 30 5f fb bb 6d b6 3f 3d 6d f5 4f 3d 0d 05 b0 3d
       -0.0076712593 0.046804834 0.050771166 0.08594713
000190 bc 3f 00 3d 8c 47 dc bb 94 61 9f 3d 79 c5 51 bd
       0.03131078 -0.0067223962 0.077822834 -0.051213715
0001a0 58 19 6d 3d d8 5f 60 3d 33 49 a4 bc 51 a8 fa bc
       0.057885498 0.054778904 -0.020054435 -0.030597838
0001b0 b5 d9 5a 39 00 3f 81 bd 30 ef 8d 3d 41 46 97 3c
       0.00020871202 -0.063108444 0.06930387 0.018466117
0001c0 46 03 db 3b cc 6c 30 3d 73 89 01 3d ac 43 19 bd
       0.00668374 0.043072507 0.031625222 -0.037418053
0001d0 7d 7a fc 3c cc 82 40 bd 03 a4 b7 3d 05 78 f8 bc
       0.030820126 -0.046999738 0.0896683 -0.030330667
0001e0 9c 2a 66 bd 49 7f 21 3d 0f 57 0b 3d 1a 35 a2 bd
       -0.05619298 0.03942803 0.034018572 -0.079202846
0001f0 90 f9 f4 3c 75 7b d5 3c ae 64 2c bd dc 7e 1e bc
       0.029904157 0.026059845 -0.042088203 -0.0096738
000200 f6 8f 0c 3d 77 b2 47 bc cb 58 97 3c 13 e0 f3 3c
       0.03431698 -0.012188545 0.018474957 0.029769933
000210 6d 8a 85 bd 7b 95 2b 3d cf 8d 4d 3d 24 69 7a bd
       -0.06520543 0.041890603 0.050184067 -0.061135426
000220 e4 ec c8 3c 0b 7c 7d bd c0 4d 7b bc 9b 47 54 bd
       0.02452702 -0.061885875 -0.015338361 -0.0518261
000230 80 dc 02 bd e3 fd 8b bc c9 60 a1 3c 23 85 12 3d
       -0.031948566 -0.017088836 0.019699471 0.0357715
000240 ea 68 89 bd aa 02 15 bd 5c fa ac 3d 45 cd 2b 3d
       -0.06709464 -0.036379494 0.0844619 0.041943807
000250 b6 3d 04 be 28 fc ea 3c aa 79 ae bd 75 ff df 3c
       -0.12914166 0.02868469 -0.08519299 0.027343491
000260 98 cb e8 3a b6 c6 77 bd 22 15 b1 bc 9a 4d 8a bb
       0.0017760871 -0.06049224 -0.021616522 -0.0042206766
000270 c4 5e ba bd 35 c1 d7 bd 81 d2 a3 bd a5 c7 e5 3c
       -0.09100106 -0.10534898 -0.07999135 0.0280493
000280 19 dd 12 3d 2b b3 2d bd 10 4b b7 3d 45 a0 87 3d
       0.035855386 -0.042407196 0.08949864 0.06622366
000290 60 1c 5a bc 22 83 19 bd a8 ca 23 bc 72 26 37 3b
       -0.013312429 -0.037478574 -0.0099970475 0.00279465
0002a0 91 cd 4e 3d 7a 8f 82 3d d7 16 ed bb 22 4a 78 bd
       0.050489012 0.06375022 -0.0072353887 -0.060617574
0002b0 19 af b6 3c fc ac 7b bc 90 a3 30 3d 6c 31 a2 3b
       0.02230029 -0.015361067 0.043124735 0.004949739
0002c0 57 2c 19 3d 93 26 2b 3d 5d 8e 2c bc 56 df 20 3d
       0.0373958 0.041784834 -0.010531989 0.03927549
0002d0 a3 63 d1 bc 59 13 73 bd fe 87 c9 bc 6a 0c e0 bd
       -0.025560206 -0.059344623 -0.024600979 -0.10939868
0002e0 9b fe 41 bd 63 cf 56 3d 64 ac 0d bd b0 81 41 3c
       -0.04736195 0.052443873 -0.034588233 0.011810705
0002f0 84 23 56 bd 61 45 37 bd 37 7b 8a 3d 33 b0 09 3d
       -0.052279964 -0.0447439 0.067617826 0.033615302
000300 e0 c8 6d bd 3a fb 8d 3d 64 9f 15 bd 2a 32 1a bd
       -0.058052897 0.06932683 -0.03652896 -0.037645496
000310 43 17 6e bd 98 39 22 bd 2a 2a 30 3c a6 db 46 3d
       -0.058127653 -0.039605707 0.01075224 0.048549317
000320 76 44 7c 3d 77 4b d3 bb e3 4e 8a bd 92 33 c7 bb
       0.061588727 -0.006448205 -0.06753328 -0.0060791457
000330 2e 8d e5 3c 7c c1 88 bd c7 d4 22 bd b2 a1 01 3d
       0.028021421 -0.06677529 -0.0397537 0.031648345
000340 ca 38 8d 3d 7f f6 8e 3b 62 28 9d 3d 8e 62 5a bd
       0.06895597 0.0043628807 0.07673718 -0.053316645
000350 d1 a4 8d 3d fa 65 1d bc 7f 32 0d 3c e4 88 06 3d
       0.06916202 -0.009606833 0.008617996 0.032845393
000360 49 0c ad bc b0 08 76 bd c2 46 7f bc df d6 28 bd
       -0.021124022 -0.06006688 -0.015580835 -0.041220542
000370 b3 09 be 3c 14 30 83 3c 9d a1 51 bd 70 2f ac bc
       0.023197984 0.016014136 -0.051179517 -0.021018714
000380 24 3c a2 bc 2f dc 39 bd 75 ad 5b bc 4c 57 d2 bc
       -0.019804068 -0.045376 -0.013408055 -0.025676392
000390 25 91 9c ba df b1 f6 bc 81 a1 16 3e 50 ff 4b bd
       -0.0011945112 -0.030114112 0.14710046 -0.04980403
0003a0 f6 55 a9 bc 3a bf 69 3d b8 93 e8 bc 60 19 a0 3d
       -0.020670872 0.057067133 -0.02839075 0.0781734
0003b0 0f bb 83 bd 87 6c b0 bc 9c 89 dd bd c1 25 81 b9
       -0.06432163 -0.021536125 -0.108172625 -0.00024632926
0003c0 ae e4 c9 bd 38 35 9f bb b5 23 8f 3c 1e 04 8e 3c
       -0.0985807 -0.004858639 0.017473081 0.017335948
0003d0 9c ce 42 bd c2 77 d9 3d 80 43 41 bb 31 3c 47 bd
       -0.04756032 0.10618545 -0.0029489696 -0.048641387
0003e0 77 6f 3c 3d fb 49 96 3d 2b ed c1 3d 86 de 4f 3e
       0.04600474 0.073383294 0.09469064 0.2029973
0003f0 88 62 23 3d e4 18 02 3d cd 16 a9 bc bf 7d 3f 3d
       0.03988889 0.03176202 -0.020640755 0.04675078
