android/app/src/main/assets/newdatamodel.tflite (tflite, 699120 bytes, 12 tensors)

dense_1/bias f4 [11]
0.0005478378 0.04118778 0.00033872479 -0.02503134 -0.003303302 -0.01176033 -0.03158701 0.025530135
-0.016806126 0.019184785 -0.0052413954
00000000: c69c 0f3a 85b4 283d df96 b139 860e cdbc
00000010: 367c 58bb 66ae 40bc 6161 01bd 9324 d13c
00000020: 00ad 89bc 6929 9d3c 03c0 abbb

dense/bias f4 [128]
-0.02853173 0.009683568 0.011544453 -0.0021166028 1.4444056e-05 -0.008265126 -0.027932232 -0.012839062
0.02325149 -0.0017200935 -0.01594974 -0.0067173424 0.012763037 0.020841936 0.043338493 0.011926447
0.001954427 -0.008475675 -0.019538678 0.012511196 0.033533264 0.019844878 0.0007689451 -0.014878121
0.000809847 0.022529785 0.0075298026 0.003459672 0.02089472 -0.020480875 0.029534746 0.040246267
0.008026756 -0.016144343 -0.02247963 -0.008276289 0.028521005 -0.038284782 0.010429787 -0.001760445
-0.01684477 -0.014676864 0.02529129 -0.009445072 -0.0144528635 0.010606949 0.023146097 0.012193207
-0.029820412 -0.022142673 0.02439758 0.022848278 -0.02204492 0.029145762 0.040156957 0.017102612
0.021075364 0.03748026 -0.02934202 0.0064150775 0.021529322 -0.003878894 0.021955049 0.010801279
-0.03230304 0.017325968 -0.009696291 0.032892816 -0.011158916 -0.0082344 0.039735015 -0.043400455
0.019038485 0.0019785191 -0.013349342 0.009194436 -0.0033027995 0.041093364 -0.023046328 -0.021784997
-0.00927054 -0.012791215 -0.0014019693 -0.019507764 0.009615915 -0.022102244 -0.0395743 -0.029623251
0.020829765 -0.016329587 -0.020898197 -0.01546394 -0.00913276 -0.010764028 0.023125513 0.015305368
0.024653044 0.034483735 0.030007875 -0.022461327 0.007919168 -0.006933352 0.018080302 -0.018121926
-0.011698848 0.015758209 -0.004419888 -0.006052622 -0.009289184 -0.010577502 0.02660797 0.020991292
0.015736898 -0.011995314 0.032055337 -0.036482744 -0.024054138 -0.01646625 -0.0055233194 -0.033295758
0.014239686 0.032890286 0.0074930484 0.0021330153 -0.030225832 -0.006212547 -0.015933692 0.02984877
00000000: 60bb e9bc d4a7 1e3c f224 3d3c b4b6 0abb
00000010: c054 7237 736a 07bc 23d2 e4bc ee5a 52bc
00000020: e979 be3c c374 e1ba 07a9 82bc 271d dcbb
00000030: 0f1c 513c b5bc aa3c b483 313d 2567 433c
00000040: d815 003b 8fdd 0abc 940f a0bc c2fb 4c3c
00000050: 2d5a 093d ba91 a23c 0893 493a 5dc3 73bc
00000060: ea4b 543a 6290 b83c 90bc f63b aabb 623b
00000070: 672b ab3c 82c7 a7bc daf2 f13c 45d9 243d
00000080: a882 033c 2441 84bc 3327 b8bc 4699 07bc
00000090: e2a4 e93c 81d0 1cbd b3e1 2a3c bbbe e6ba
000000a0: 0bfe 89bc 3b77 70bc ae2f cf3c 81bf 1abc
000000b0: b4cb 6cbc c5c8 2d3c e29c bd3c 04c6 473c
000000c0: f049 f4bc 8d64 b5bc 6fdd c73c 502c bb3c
000000d0: 8c97 b4bc 18c3 ee3c 9f7b 243d c71a 8c3c
000000e0: 3ea6 ac3c e784 193d ad5e f0bc 9235 d23b
000000f0: 435e b03c 0b35 7ebb 13db b33c d9f7 303c
00000100: 3150 04bd 30ef 8d3c 31dd 1ebc 9eba 063d
00000110: e3d3 36bc 94e9 06bc 2fc1 223d adc4 31bd
00000120: 99f6 9b3c 0baa 013b 33b7 5abc 42a4 163c
00000130: c873 58bb 8451 283d a7cb bcbc 7376 b2bc
00000140: 77e3 17bc 3f92 51bc 49c2 b7ba bfce 9fbc
00000150: 128c 1d3c c40f b5bc a918 22bd 76ac f2bc
00000160: 2fa3 aa3c a0c5 85bc b232 abbc 775c 7dbc
00000170: 92a1 15bc 9b5b 30bc b771 bd3c 5ec3 7a3c
00000180: 2ef5 c93c d13e 0d3d 13d3 f53c d100 b8bc
00000190: 66bf 013c 2c31 e3bb 241d 943c 6f74 94bc
000001a0: 86ac 3fbc 5c17 813c b5d4 90bb 1355 c6bb
000001b0: a931 18bc 424d 2dbc f5f8 d93c eef5 ab3c
000001c0: abea 803c fe87 44bc 754c 033d ee6e 15bd
000001d0: 2f0d c5bc 3be4 86bc f6fc b4bb 2261 08bd
000001e0: 924d 693c f7b7 063d 3f88 f53b 0fca 0b3b
000001f0: 2a9c f7bc 9f92 cbbb 6087 82bc 6885 f43c

bidirectional/forward_lstm/lstm_cell_4/bias f4 [512]
-0.015189246 0.013941177 -0.018233746 0.01153067 0.038097348 0.0018013824 0.07622127 -0.008790563
-0.048411775 0.03236823 0.034801356 0.024898216 0.061986037 -0.0365893 0.007278695 -0.011667469
-0.013733921 0.012991938 -0.04694227 0.009747336 0.0258201 -0.01870679 -0.012696461 0.004814839
-0.018682059 0.013396659 -0.0011836364 -0.011781004 0.023100138 -0.01264207 0.02042325 0.026815714
0.049638707 -0.093660414 -0.017750038 0.014480849 -0.0050730803 0.016904103 0.0008705128 0.077363566
0.025754103 -0.019927831 0.018185629 -0.06592669 -0.002381832 0.017873604 0.01622646 0.02311368
-0.029944582 0.040872794 -0.026372168 0.006304603 -0.0042192186 -0.002647549 0.02318571 -0.020532236
-0.02046967 0.05541042 -0.011245328 -0.0056969435 0.027280243 0.0077982363 0.003620664 0.018729752
-0.040577367 0.015222251 0.0039605433 0.07809772 0.029826365 0.008377864 0.024463372 0.0018423555
0.06098837 0.04692188 0.014896617 -0.00677594 0.07230705 -0.06849999 -0.02600638 0.022893704
0.044794578 0.04239134 0.0314363 -0.024435315 0.017615383 -0.0027457948 -0.04978427 0.03332626
0.0017063555 0.005428338 0.030798286 0.011087352 -0.10923105 0.056096982 0.02994541 0.039773118
-0.05661174 -0.028088273 0.015367977 -0.01096353 0.0070297914 -0.009757815 0.007557694 -0.03307256
0.003854514 -0.046018444 0.008651426 -0.006028816 0.027933296 0.0017171379 -0.02940632 -0.026085632
-0.030301651 0.08433736 0.010113087 0.08154381 -0.0131115755 -0.022555033 0.03571005 -0.038284596
-0.010017167 -0.034720372 -0.02488756 -0.03912885 -0.008754 0.002661122 0.03104975 0.014059302
1.0129902 1.0075763 0.996022 1.05339 1.004292 1.009638 0.9996703 0.99637145
0.98346424 1.055262 0.97085637 1.0582618 0.98835945 1.0213861 1.0362083 1.0106915
0.994098 1.0102277 0.9741069 1.0501707 1.034967 1.0104555 0.9835878 1.009828
1.0812005 1.0290816 1.0110129 0.9855644 1.0492162 1.0211445 0.98506325 1.0673621
1.0264137 1.0075246 1.0113782 1.0436718 1.0269996 1.0736612 0.9893075 1.0431839
1.0304153 1.014602 1.114381 1.0212957 1.0010974 1.0267072 1.0444349 1.024438
0.9964215 1.0260987 1.076594 0.9867433 1.0396154 1.0268413 0.99358165 1.0119672
1.0461354 1.0562577 1.0010536 1.0194011 1.0476613 1.0048034 1.0333422 1.0057312
0.99475837 1.0205272 0.99458665 0.99185264 1.0361177 1.061195 1.0168433 0.9971813
1.0625187 0.99954784 1.006728 1.051442 1.0054027 1.0118335 1.0637375 1.0011702
1.0370977 1.0395093 1.0744627 0.99041677 0.99892753 1.0069028 0.96229494 1.0610553
1.0068614 0.9820595 1.038559 1.0265273 1.0176151 1.0721407 1.0469037 1.0059818
1.0008962 1.0439105 1.0526162 1.0160077 1.0195172 0.9993973 1.0786495 1.0101418
1.0223941 0.96291935 1.0369287 0.9934509 1.0133976 1.0580306 0.97725403 1.0129358
1.0181727 1.0061288 1.0288378 1.0451354 1.0720361 1.0068259 1.0125743 1.0833539
1.0030698 1.031657 0.99983114 1.04648 1.0134294 1.0461981 0.98645574 1.0296865
00000000: 51dc 78bc 8969 643c f05e 95bc 23eb 3c3c
00000010: f70b 1c3d 5d1c ec3a e619 9c3d 4b06 10bc
00000020: 6d4b 46bd 8d94 043d de8b 0e3d 58f7 cb3c
00000030: 12e5 7d3d a9de 15bd 1e82 ee3b e928 3fbc
00000040: 3d04 61bc 23dc 543c 8a46 40bd 4ab3 1f3c
00000050: ad84 d33c fb3e 99bc d104 50bc ccc5 9d3b
00000060: 1e0b 99bc a97d 5b3c 3f24 9bba 1d05 41bc
00000070: 803c bd3c af20 4fbc a94e a73c a1ac db3c
00000080: f551 4b3d 08d1 bfbd 8768 91bc 1541 6d3c
00000090: 153c a6bb 797a 8a3c 2033 643a ca70 9e3d
000000a0: 45fa d23c b13f a3bc 07fa 943c 9304 87bd
000000b0: 8318 1cbb aa6b 923c 5aed 843c e658 bd3c
000000c0: 574e f5bc 3b6a 273d 720a d8bc d896 ce3b
000000d0: 5f41 8abb 8082 2dbb f5ef bd3c 3833 a8bc
000000e0: 02b0 a7bc 09f6 623d 533e 38bc 6dad babb
000000f0: d17a df3c 5988 ff3b a948 6d3b 236f 993c
00000100: 7434 26bd c066 793c 72c7 813b b3f1 9f3d
00000110: 6c56 f43c 4f43 093c 6967 c83c 317b f13a
00000120: f1ce 793d 2831 403d f110 743c b408 debb
00000130: b815 943d b949 8cbd 550b d5bc 948b bb3c
00000140: 857a 373d 8ba2 2d3d 5ac3 003d 922c c8bc
00000150: 234e 903c cbf2 33bb 97ea 4bbd 1e81 083d
00000160: caa7 df3a 33e0 b13b b04c fc3c baa7 353c
00000170: 87b4 dfbd f3c5 653d 1450 f53c 23e9 223d
00000180: b6e1 67bd 6119 e6bc f8c9 7b3c 61a0 33bc
00000190: 2a5a e63b 3edf 1fbc 88a6 f73b 1877 07bd
000001a0: 049c 7c3b d67d 3cbd b6be 0d3c 608d c5bb
000001b0: 5ed4 e43c 9611 e13a 86e5 f0bc 89b1 d5bc
000001c0: 2b3b f8bc 11b9 ac3d 5cb1 253c 7100 a73d
000001d0: efd1 56bc 55c5 b8bc b444 123d 4fd0 1cbd
000001e0: 0b1f 24bc f336 0ebd ffe0 cbbc 9345 20bd
000001f0: f06c 0fbc 3866 2e3b 0c5c fe3c fd58 663c
00000200: aaa9 813f 43f8 803f 4cfb 7e3f 7cd5 863f
00000210: a48c 803f d13b 813f 65ea 7f3f 3312 7f3f
00000220: 50c4 7b3f d312 873f 0b8a 783f 1f75 873f
00000230: 2005 7d3f c8bc 823f 79a2 843f 575e 813f
00000240: 357d 7e3f 244f 813f 125f 793f fe6b 863f
00000250: cc79 843f 9b56 813f 69cc 7b3f 0b42 813f
00000260: c764 8a3f f2b8 833f df68 813f f34d 7c3f
00000270: b74c 863f ddb4 823f 1b2d 7c3f 529f 883f
00000280: 8661 833f 91f6 803f d774 813f 0a97 853f
00000290: b974 833f bb6d 893f 4243 7d3f 0d87 853f
000002a0: a6e4 833f 7ade 813f 09a4 8e3f d1b9 823f
000002b0: f623 803f 246b 833f 0bb0 853f c920 833f
000002c0: 7b15 7f3f 3457 833f d5cd 893f 359b 7c3f
000002d0: 1e12 853f 896f 833f 5e5b 7e3f 2488 813f
000002e0: c4e7 853f 7433 873f 8622 803f bc7b 823f
000002f0: c419 863f 669d 803f 8f44 843f cdbb 803f
00000300: 7ca8 7e3f a3a0 823f 3b9d 7e3f 0eea 7d3f
00000310: 819f 843f 3dd5 873f ec27 823f 4647 7f3f
00000320: 9d00 883f 5ee2 7f3f 77dc 803f a795 863f
00000330: 09b1 803f c383 813f 8d28 883f 5826 803f
00000340: 9ebf 843f a40e 853f fe87 893f f48b 7d3f
00000350: b7b9 7f3f 31e2 803f f658 763f a9d0 873f
00000360: d6e0 803f 4068 7b3f 80ef 843f 3f65 833f
00000370: 3641 823f e83b 893f f100 863f 03c4 803f
00000380: 5e1d 803f dc9e 853f 21bc 863f 8a0c 823f
00000390: 8a7f 823f 80d8 7f3f 3011 8a3f 544c 813f
000003a0: cfdd 823f e281 763f 14ba 843f cc52 7e3f
000003b0: 03b7 813f 8c6d 873f 522d 7a3f e1a7 813f
000003c0: 7c53 823f d4c8 803f f5b0 833f ffc6 853f
000003d0: 7b38 893f acdf 803f 099c 813f 57ab 8a3f
000003e0: 9764 803f 560d 843f eff4 7f3f 0ef3 853f
000003f0: 0eb8 813f d2e9 853f 5d88 7c3f c4cc 833f

bidirectional/backward_lstm/lstm_cell_5/bias f4 [512]
-0.0182645 0.039589435 0.026693663 0.039807152 -0.05932189 -0.0015315339 -8.286655e-05 0.03854799
0.073277146 0.0903214 0.021111166 -0.03877285 -0.0029927932 -0.005557663 -0.015351977 -0.046189986
-0.027990574 -0.037248805 -0.02666915 0.033335313 0.033424914 -0.0035607156 -0.037705403 -0.030221088
0.044686772 -0.018936174 -0.025841719 -0.034154702 -0.04676881 -0.00846279 -0.023278577 0.028380714
-0.0027271952 -0.0021885845 -0.018273389 0.02673296 -0.03976597 0.06794603 0.013766202 -0.0870478
0.0038667878 0.0014525454 -0.0035318558 -0.056162275 0.014923395 0.052959327 0.018191168 0.012955221
0.0015523506 0.048989326 -0.018703545 -0.0047630314 -0.0038363144 0.015403704 -0.11418888 -0.00076880696
-0.019168936 -0.012421733 -0.05542636 -0.013501037 -0.0049949163 0.03145947 -0.032299716 0.008153431
-0.016136887 0.015059857 -0.01576474 0.006254478 -0.010126509 0.012937348 -0.008885114 -0.019303387
0.0013517152 0.016981505 0.0050571235 -0.12307413 -0.012661049 -0.015380105 0.054419663 -0.08037705
0.015372001 -0.050415747 0.0032560332 -0.019943409 0.0074044894 -0.021912202 -0.014093444 -0.0363526
0.04953654 0.028582707 -0.0099151945 -0.057376526 0.016838215 0.024112873 -0.0027148668 -0.014178666
-0.023537947 0.01329164 0.0167876 -0.029463874 -0.010255007 0.03532598 -0.020371245 0.08612285
0.0008762963 0.018217973 0.03156587 -0.037125636 -0.0055626347 0.0604289 0.025323683 -0.01362021
-0.030786103 0.000100242 0.005208402 -0.02676653 0.018109126 -0.005026823 -0.02046572 0.026521046
0.005922889 0.08866381 -0.004468447 -0.014954166 -0.00344672 0.004149441 -0.0053983172 -0.03861474
0.97929066 1.0715528 1.0390444 0.98528934 1.0029768 1.0399622 1.0267245 1.0641593
1.0345554 1.1150683 1.0247049 1.0568434 1.0123863 0.9955541 1.0310365 0.9734153
1.0415047 1.0293738 0.99411947 1.0648837 1.0456914 1.0162106 1.0009981 1.0025117
1.0237062 1.053473 1.0264151 1.048245 1.0319377 1.0237437 0.99541473 1.0481529
1.0496951 1.000467 1.0012808 0.97362876 1.0393484 1.0137987 1.0280792 1.0810615
1.0563354 1.0017893 1.0166944 1.0555522 1.0268111 0.97742456 1.0060259 0.9983147
1.038608 1.0013573 1.0175841 1.0589443 1.0224801 0.99564296 1.0153598 1.081474
1.0694053 1.0763046 1.0334512 1.0178465 1.0016471 1.0028887 1.0470285 1.0683308
0.982387 1.0773072 1.0026776 1.0903475 1.0055101 1.0591569 1.0728885 0.9896212
1.0180748 1.0154551 1.0634084 1.0739523 1.004453 1.0373603 1.059635 1.0483432
1.0201637 1.0101343 1.052249 0.9932183 1.0184066 1.0583932 0.98822004 1.0245957
1.0307194 1.0245415 1.0080799 0.99613225 1.0152457 1.0092274 0.99971384 1.011738
1.0193366 0.9742439 1.0408919 1.004365 1.0390528 1.0527282 1.0542597 1.0116184
1.0062534 1.0404606 1.0131048 1.0247214 1.0214561 0.9668619 1.0431117 1.0022876
1.0487293 1.0005722 1.0060955 1.0361384 1.0404122 0.9996745 1.0483886 1.0456207
1.0202041 1.0438832 1.0054593 1.0289812 0.9957971 1.0746739 1.0126005 0.9797774
00000000: 6f9f 95bc 8828 223d abac da3c d30c 233d
00000010: 83fb 72bd c0bd c8ba a4c8 adb8 7fe4 1d3d
00000020: 5412 963d 6dfa b83d 53f1 ac3c 48d0 1ebd
00000030: bd22 44bb 0e1d b6bb dc86 7bbc b631 3dbd
00000040: 7d4c e5bc 3492 18bd 4379 dabc 9c8a 083d
00000050: 90e8 083d e55a 69bb fb70 1abd 3792 f7bc
00000060: 7a09 373d 0920 9bbc 03b2 d3bc cde5 0bbd
00000070: a790 3fbd 84a7 0abc b7b2 bebc ac7e e83c
00000080: beba 32bb 5b6e 0fbb 13b2 95bc 15ff da3c
00000090: a4e1 22bd 4a27 8b3d a38b 613c 1e46 b2bd
000000a0: ef69 7d3b 5663 be3a b576 67bb 6a0a 66bd
000000b0: 4181 743c e1eb 583d a505 953c 2342 543c
000000c0: 3e78 cb3a 08a9 483d 2d38 99bc 3413 9cbb
000000d0: ad6a 7bbb d15f 7c3c dcdb e9bd c389 49ba
000000e0: 2c08 9dbc 8684 4bbc c006 63bd 7433 5dbc
000000f0: 65ac a3bb a5db 003d b54c 04bd f895 053c
00000100: 8131 84bc 9ebd 763c 0e25 81bc 5df2 cc3b
00000110: a8e9 25bc 2cf7 533c df92 11bc 2322 9ebc
00000120: 092c b13a cc1c 8b3c 3ab6 a53b 4a0e fcbd
00000130: 4a70 4fbc d6fc 7bbc 27e7 5e3d b99c a4bd
00000140: d8da 7b3c be80 4ebd 2c63 553b 5c60 a3bc
00000150: 5ca1 f23b 3881 b3bc 30e8 66bc 77e6 14bd
00000160: d4e6 4a3d 4826 ea3c 5773 22bc a603 6bbd
00000170: 4cf0 893c 5c88 c53c e8eb 31bb a34d 68bc
00000180: a7d2 c0bc 2ec5 593c 2686 893c 395e f1bc
00000190: 9e04 28bc fab1 103d 99e1 a6bc 2d61 b03d
000001a0: 40b7 653a dc3d 953c 374b 013d 0d11 18bd
000001b0: c346 b6bb 4b84 773d 9d73 cf3c 4d27 5fbc
000001c0: 2333 fcbc 0439 d238 3eab aa3b 7b45 dbbc
000001d0: 9759 943c 0cb8 a4bb baa7 a7bc aa42 d93c
000001e0: cb14 c23b 5f95 b53d 0d6c 92bb 5102 75bc
000001f0: 5ee2 61bb 09f8 873b 5ee4 b0bb 7d2a 1ebd
00000200: cbb2 7a3f a428 893f 68ff 843f ec3b 7c3f
00000210: 8b61 803f 7b1d 853f b56b 833f 5f36 883f
00000220: 506c 843f 8fba 8e3f 8829 833f a546 873f
00000230: e095 813f a2dc 7e3f 01f9 833f bf31 793f
00000240: 0750 853f 85c2 833f 9d7e 7e3f 1c4e 883f
00000250: 37d9 853f 3013 823f b520 803f 4e52 803f
00000260: ce08 833f 34d8 863f 9261 833f e42c 863f
00000270: 8916 843f 090a 833f 80d3 7e3f e029 863f
00000280: 695c 863f 4d0f 803f f829 803f bc3f 793f
00000290: 5e09 853f 28c4 813f 1998 833f 3960 8a3f
000002a0: 0036 873f a23a 803f 0b23 823f 561c 873f
000002b0: 8c6e 833f 7f38 7a3f 75c5 803f 8d91 7f3f
000002c0: 1bf1 843f 7a2c 803f 3240 823f 7d8b 873f
000002d0: a1e0 823f 75e2 7e3f 4ff7 813f bd6d 8a3f
000002e0: 46e2 883f 59c4 893f 2148 843f cb48 823f
000002f0: f935 803f a85e 803f 0805 863f 10bf 883f
00000300: b77d 7b3f 34e5 893f bd57 803f 8290 8b3f
00000310: 8eb4 803f 7492 873f 6954 893f d157 7d3f
00000320: 4650 823f 6ffa 813f c41d 883f 4577 893f
00000330: ea91 803f 39c8 843f 1fa2 873f 1c30 863f
00000340: b994 823f 154c 813f 18b0 863f 8e43 7e3f
00000350: 265b 823f 6e79 873f fdfb 7c3f f425 833f
00000360: 9dee 833f 2d24 833f c308 813f 8602 7f3f
00000370: 92f3 813f 5d2e 813f 3fed 7f3f a180 813f
00000380: 9f79 823f 0c68 793f f23b 853f 088f 803f
00000390: afff 843f ccbf 863f fbf1 863f b67c 813f
000003a0: e9cc 803f d02d 853f 6bad 813f 122a 833f
000003b0: 13bf 823f 4384 773f af84 853f f64a 803f
000003c0: c33c 863f c012 803f bdc7 803f 2fa0 843f
000003d0: 3a2c 853f abea 7f3f 9931 863f e6d6 853f
000003e0: 0c96 823f f79d 853f e4b2 803f a8b5 833f
000003f0: 8fec 7e3f ea8e 893f e59c 813f b1d2 7a3f

std.constant6 f4 [128, 256]
-0.051611293 -0.021657279 -0.008029165 0.022207193 0.056671817 -0.0050633415 -0.103739336 0.017736932
-0.15941437 -0.031595364 -0.11401463 0.03174122 -0.016975071 -0.0407893 -0.042724233 0.057321064
0.025492802 0.06026968 -0.07572798 -0.021688707 0.019818116 -0.15258673 0.045562167 -0.034856375
0.11670732 0.11150915 0.07866536 -0.1647426 0.09735265 -0.14135006 -0.103545025 0.008075956
-0.10865632 0.023288354 -0.035832252 0.002414412 0.11868082 -0.09916056 0.08192237 0.059106767
-0.035431053 -0.057143643 -0.14140649 -0.076097734 -0.091113 0.08727565 0.13647127 -0.011820713
0.06659962 0.14203276 0.041878883 0.057929244 0.062087223 -0.1918997 0.03789323 -0.07549574
-0.15774022 0.11109837 -0.05233427 0.07133507 -0.09885204 0.111350745 -0.023346802 -0.088369094
-0.00988813 -0.15343735 -0.16325283 0.00426554 0.05615854 -0.037177615 -0.02054531 -0.020401694
0.016582739 -0.02426047 -0.10426656 -0.078762755 -0.11067581 0.062056996 -0.023839666 -0.06518119
0.06294297 -0.14788805 0.055550642 0.015303643 -0.06351732 0.029997844 0.047522865 -0.027043404
0.070520006 0.13825518 -0.038170524 -0.13243587 -0.008867065 0.0546138 -0.06246761 0.08036572
0.046238784 -0.010676862 -0.12659208 -0.08641074 -0.08041626 -0.042847384 0.11966751 -0.08248106
-0.0041966904 0.13774168 0.08567172 -0.052581355 0.07689041 -0.049813375 -0.05426413 0.020643674
0.024211911 0.031630244 -0.041589018 0.032288853 -0.09359339 -0.03868141 -0.12415324 0.004488275
-0.018415593 0.038327612 0.094271205 0.0032565196 -0.13875316 -0.11102395 0.10188359 -0.0021416582
-0.099495895 0.04885848 0.15196735 -0.09634746 -0.04186061 0.06816312 -0.07965648 0.11372196
0.073801674 -0.10346702 -0.06813209 -0.12390775 0.010399365 -0.0152339935 0.096013315 0.028473098
0.043421566 0.10426784 0.1115821 -0.08327331 0.0048183906 0.068244986 -0.053952496 0.100839466
0.08023003 0.047315963 0.09708063 0.06623894 -0.08532405 -0.023101704 0.12404437 0.07021739
0.0029044843 0.06517784 0.023529869 -0.04245854 -0.027084034 0.016281577 -0.16831714 -0.07480682
0.10206042 -0.108767785 -0.018046388 -0.012698404 0.08151389 -0.004603372 0.081173435 -0.059828963
-0.08788577 -0.09155364 0.05304428 0.16413777 0.004224842 0.082850695 -0.105095446 0.0071104015
0.1054384 0.015251017 -0.09386781 0.022163806 -0.13439654 0.0609212 -0.02242789 0.016075326
0.012721096 -0.04738372 0.08677858 -0.05707275 -0.052061204 -0.1586902 -0.067381345 -0.054005742
-0.028351726 0.09918277 -0.0070400243 0.012532601 0.008983226 0.042911455 0.020640833 -0.053855155
-0.1434025 -0.022980094 -0.09504849 -0.022436416 0.12011732 -0.08059587 0.0052606305 0.098180704
0.0058904137 0.14434044 -0.058260333 0.10121315 -0.020142116 0.041090533 -0.073790856 0.097131446
-0.12463383 0.085718535 0.008196801 0.025076158 -0.005349565 -0.03859025 -0.20723595 -0.12997301
0.017641855 0.08334205 0.12355902 0.00783922 -0.1365557 -0.028370397 -0.1293241 0.013216113
0.10721033 -0.020974042 -0.043305896 -0.05249329 -0.05978343 -0.09043613 -0.03241519 0.023642901
0.06312696 -0.12518333 -0.008049815 0.07205781 0.094391964 0.062768936 -0.07500704 -0.03539536
00000000: 5d66 53bd 9b6a b1bc c28c 03bc dceb b53c
00000010: b520 683d 63ea a5bb 4a75 d4bd 0b4d 913c
00000020: 853d 23be 246a 01bd 8180 e9bd 1503 023d
00000030: 4e0f 8bbc ae12 27bd 9bff 2ebd 7ec9 6a3d
00000040: 48d6 d03c 57dd 763d 4517 9bbd 84ac b1bc
00000050: 9a59 a23c b23f 1cbe 659f 3a3d 8fc5 0ebd
00000060: 3f04 ef3d e95e e43d 4e1b a13d 49b2 28be
00000070: d360 c73d 12be 10be 6a0f d4bd 0451 043c
00000080: 3487 debd 38c7 be3c d7c4 12bd 1d3b 1e3b
00000090: ee0e f33d b114 cbbd eac6 a73d f019 723d
000000a0: 2720 11bd 740f 6abd ddcc 10be 21d9 9bbd
000000b0: 7499 babd 93bd b23d 20bf 0b3e aaab 41bc
000000c0: 6265 883d 0971 113e 3189 2b3d 3747 6d3d
000000d0: 2c4f 7e3d 5b81 44be ee35 1b3d 839d 9abd
000000e0: a786 21be 8b87 e33d 765c 56bd 1f18 923d
000000f0: f072 cabd dc0b e43d cb41 bfbc dbfa b4bd
00000100: d301 22bc ae1e 1dbe c02b 27be f1c5 8b3b
00000110: 7f06 663d 8e47 18bd a34e a8bc 7421 a7bc
00000120: 86d8 873c e5bd c6bc b589 d5bd 5e4e a1bd
00000130: 00aa e2bd 7a2f 7e3d 674b c3bc b77d 85bd
00000140: 3ee8 803d f76f 17be 1289 633d 22bc 7a3c
00000150: 5e15 82bd 0abe f53c 56a7 423d 218a ddbc
00000160: cb6c 903d c492 0d3e b258 1cbd 459d 07be
00000170: 2b47 11bc b8b2 5f3d 09de 7fbd c896 a43d
00000180: e164 3d3d 01ee 2ebc 5ba1 01be 1df8 b0bd
00000190: 48b1 a4bd bd80 2fbd 3d14 f53d d4eb a8bd
000001a0: 6484 89bb 280c 0d3e a874 af3d 8c5f 57bd
000001b0: b878 9d3d 1c09 4cbd 1044 5ebd ec1c a93c
000001c0: 0f58 c63c b78e 013d 3f59 2abd 5141 043d
000001d0: e4ad bfbd 6670 1ebd 0e44 febd 6112 933b
000001e0: 4cdc 96bc 6afd 1c3d 4311 c13d 556b 553b
000001f0: 4f15 0ebe 8660 e3bd 58a8 d03d 105b 0cbb
00000200: 81c4 cbbd d41f 483d 549d 1b3e d151 c5bd
00000210: 0876 2bbd 1b99 8b3d f022 a3bd 0fe7 e83d
00000220: 5525 973d 84e6 d3bd d688 8bbd 59c3 fdbd
00000230: 1962 2a3c 0098 79bc a1a2 c43d 6a40 e93c
00000240: d0da 313d 618a d53d 2885 e43d 328b aabd
00000250: 97e3 9d3b 07c4 8b3d 4bfd 5cbd ec84 ce3d
00000260: a44f a43d 62ce 413d 36d2 c63d 48a8 873d
00000270: 60be aebd c93f bdbc fa0a fe3d 23ce 8f3d
00000280: 2959 3e3b f67b 853d b6c1 c03c 02e9 2dbd
00000290: 56df ddbc f160 853c 545b 2cbe 5134 99bd
000002a0: 0e05 d13d a5c1 debd 05d6 93bc f70c 50bc
000002b0: c1f0 a63d e2d7 96bb 423e a63d 370f 75bd
000002c0: 74fd b3bd 7a80 bbbd f544 593d bb13 283e
000002d0: 8b70 8a3b a0ad a93d 483c d7bd 5ffe e83b
000002e0: 16f0 d73d 67df 793c c43d c0bd df90 b53c
000002f0: 3f9f 09be 8288 793d b2ba b7bc 67b0 833c
00000300: 256c 503c 6e15 42bd f8b8 b13d 1ec5 69bd
00000310: 213e 55bd af7f 22be 3bff 89bd 2035 5dbd
00000320: e141 e8bc 5620 cb3d 01b0 e6bb 8a55 4d3c
00000330: 612e 133c ecc3 2f3d f716 a93c 3997 5cbd
00000340: 1bd8 12be c040 bcbc c8a8 c2bd 93cc b7bc
00000350: 1200 f63d 730f a5bd 5e61 ac3b f712 c93d
00000360: 5f04 c13b fbcd 133e 63a2 6ebd d748 cf3d
00000370: 1401 a5bc 8c4e 283d a91f 97bd daec c63d
00000380: 0540 ffbd 338d af3d e04b 063c 846c cd3c
00000390: 674b afbb cf10 1ebd a935 54be a517 05be
000003a0: a785 903c 3daf aa3d 830c fd3d 1270 003c
000003b0: 42d5 0bbe 0969 e8bc 896d 04be 6588 583c
000003c0: 1791 db3d c1d1 abbc 8661 31bd 3403 57bd
000003d0: 78df 74bd 9436 b9bd cac5 04bd c2ae c13c
000003e0: b548 813d 0f30 00be 5fe3 03bc 0c93 933d
000003f0: 9350 c13d 008d 803d 4a9d 99bd bafa 10bd

std.constant7 f4 [11, 128]
-0.0022184278 0.161732 0.02345649 0.23412934 0.22109646 -0.17176108 0.12062714 -0.04052337
0.10902607 -0.23763773 0.1326932 -0.17636292 -0.14392386 -0.059637025 0.037939075 -0.21175833
-0.14156845 0.26483732 0.08147633 -0.023521872 -0.022428216 -0.26348552 0.008915696 -0.19345911
0.22022687 0.12482414 -0.08643551 0.27217355 0.17163588 -0.0062207105 0.03540745 0.11236351
0.1221821 0.06018433 0.045459386 0.08643959 0.050267275 -0.073285565 0.11534946 0.1067396
-0.20867476 0.026944198 0.118631445 0.06301166 0.21364518 -0.22488208 0.08403723 0.085994974
0.27858055 -0.1338079 -0.15203929 -0.19977556 0.21041285 0.11617558 -0.031876538 0.13058777
0.17137957 -0.19838342 -0.24485253 0.20551871 0.0022682953 0.17659461 -0.17109972 0.1362125
0.052780766 0.0794842 0.1058467 0.016098702 -0.06739379 0.24242182 -0.011889055 0.069768526
0.12732321 0.058734346 -0.07709844 -0.17427704 0.14971857 0.08198696 0.264124 0.05607825
-0.11201354 0.13781014 -0.066496424 -0.09132088 0.16015479 -0.040686432 0.16606043 0.00038426017
0.032806717 -0.11314864 -0.20093831 -0.008678262 -0.19507559 -0.039030816 -0.14952378 -0.17515635
-0.11071237 0.15458444 0.15885104 -0.052473918 -0.24735859 -0.05481835 -0.20549978 -0.06073608
0.02371546 -0.21375291 0.040405873 -0.100085914 0.16166121 -0.09155133 -0.12505075 0.21511765
0.023447195 -0.122824855 -0.035193376 0.13814119 -0.16330597 -0.07857287 0.13494937 -0.09810635
-0.20501527 0.109534495 -0.21271619 -0.06888609 0.0696861 0.026101748 -0.17908126 -0.24941288
0.16315497 0.14446095 0.18941244 0.18855499 0.17775732 0.056106057 -0.049068954 -0.03647181
0.033859093 0.20697731 -0.11904063 -0.19413413 -0.20260857 0.14868924 -0.14869647 -0.12389797
0.10732531 0.05867316 -0.11453931 0.26471296 0.19392459 0.14480326 -0.10677512 0.054720245
-0.061737925 0.1441657 -0.1763197 -0.21444865 0.14281647 -0.15653604 0.2854478 -0.097922295
0.06542687 -0.14301735 0.06952249 0.067821674 -0.10996211 -0.17907792 0.09670076 0.00015178548
-0.0077699916 0.20118381 0.10680495 -0.108157285 -0.21445313 0.035516944 0.23456725 -0.26057136
0.19223323 -0.30997717 0.03155021 0.32571232 -0.14320019 0.25931254 0.08669696 0.30952963
0.03142082 -0.0062136385 -0.035161 0.3280828 -0.20005724 -0.07476488 -0.009335525 0.1907993
-0.22226645 0.19312946 -0.23349209 0.25232738 -0.03233265 -0.042707108 0.13126546 -0.13519369
0.21742678 0.0305002 -0.2481747 -0.13614029 -0.14972736 0.17149779 -0.1552597 -0.13221195
0.15207526 -0.14842479 0.19531524 -0.12098102 0.096507326 -0.051840592 0.08456848 -0.0997438
0.15124512 0.047548845 0.21640061 0.17748149 -0.07375593 0.029686788 0.22010556 0.11401988
0.24814402 -0.16281353 0.1909656 0.21105543 0.02071835 0.16144256 0.14825772 0.011003565
-0.09344187 0.2694104 -0.1648634 -0.22213608 0.059072454 -0.025489327 0.040912405 -0.17166899
0.22867823 -0.17045246 0.23307472 -0.014111728 -0.03126541 -0.106564134 -0.26668355 -0.2636465
0.18581259 -0.14639889 -0.049930084 0.13073765 -0.27765667 -0.0009093917 -0.17398363 0.121937044
00000000: 0b63 11bb 139d 253e d327 c03c 9abf 6f3e
00000010: 1c67 623e 23e2 2fbe 5d0b f73d d5fb 25bd
00000020: 0f49 df3d 4e57 73be bae0 073e 7b98 34be
00000030: c760 13be f445 74bd 0166 1b3d 2dd7 58be
00000040: 52f7 10be c298 873e 10dd a63d f1b0 c0bc
00000050: 61bb b7bc 93e7 86be 2413 123c 251a 46be
00000060: 2783 613e cca3 ff3d 1a05 b1bd 555a 8b3e
00000070: 51c1 2f3e 1ad7 cbbb 6707 113d d71e e63d
00000080: 9c3a fa3d d883 763d 9f33 3a3d 3d07 b13d
00000090: 0fe5 4d3d be16 96bd 563c ec3d 4b9a da3d
000000a0: d6ae 55be 14ba dc3c 0bf5 f23d 420c 813d
000000b0: cdc5 5a3e 7d47 66be b61b ac3d 221e b03d
000000c0: 1ca2 8e3e f004 09be 30b0 1bbe f791 4cbe
000000d0: 7776 573e 76ed ed3d f990 02bd cdb8 053e
000000e0: 207e 2f3e 0625 4bbe 9fba 7abe 7f73 523e
000000f0: aea7 143b 38d5 343e c434 2fbe 4a7b 0b3e
00000100: a530 583d 9dc8 a23d 28c6 d83d 6de1 833c
00000110: c105 8abd 6d3d 783e 50ca 42bc cde2 8e3d
00000120: 0461 023e 6d93 703d c9e5 9dbd ae75 32be
00000130: d34f 193e c7e8 a73d 433b 873e 4fb2 653d
00000140: 5b67 e5bd 1a1e 0d3e 472f 88bd 7106 bbbd
00000150: 9eff 233e d1a6 26bd bf0b 2a3e 8776 c939
00000160: 5660 063d 79ba e7bd c6c2 4dbe 452f 0ebc
00000170: e5c1 47be c7de 1fbd c31c 19be 305c 33be
00000180: 2bbd e2bd 624b 1e3e d9a9 223e e4ee 56bd
00000190: 924b 7dbe 3589 60bd 896e 52be 65c6 78bd
000001a0: ed46 c23c 0be2 5abe a180 253d d8f9 ccbd
000001b0: 848a 253e 447f bbbd 4e0d 00be cd47 5c3e
000001c0: 5514 c03c 998b fbbd ee26 10bd e274 0d3e
000001d0: ae39 27be d0ea a0bd 2b30 0a3e fbeb c8bd
000001e0: 86ef 51be 9f53 e03d 46d2 59be 2614 8dbd
000001f0: 96b7 8e3d 55d3 d53c 1461 37be 1766 7fbe
00000200: 1912 273e 92ed 133e 56f5 413e 8f14 413e
00000210: 0406 363e 77cf 653d 87fc 48bd 7763 15bd
00000220: d5af 0a3d dcf1 533e 93cb f3bd 19cb 46be
00000230: 9f78 4fbe fe41 183e e343 18be 38be fdbd
00000240: 5fcd db3d 4453 703d 9693 eabd 7588 873e
00000250: 2b94 463e 4e47 143e eaac dabd 5622 603d
00000260: e8e0 7cbd 2ca0 133e 278d 34be 6d98 5bbe
00000270: 7b3e 123e fc4a 20be 3726 923e 7c8b c8bd
00000280: 86fe 853d 2473 12be cf61 8e3d 17e6 8a3d
00000290: d133 e1bd 3460 37be 0c0b c63d 9b28 1f39
000002a0: 6a9b febb 2103 4e3e 8ebc da3d 9181 ddbd
000002b0: 9a99 5bbe 377a 113d 6632 703e 9c69 85be
000002c0: cad8 443e 54b5 9ebe cb3a 013d c4c3 a63e
000002d0: 12a3 12be 9dc4 843e 2d8e b13d ab7a 9e3e
000002e0: 1eb3 003d c79b cbbb fb04 10bd 78fa a73e
000002f0: cedb 4cbe 541e 99bd 08f4 18bc e460 433e
00000300: d199 63be bbc3 453e 8d18 6fbe 0e31 813e
00000310: 3e6f 04bd a6ed 2ebd 746a 063e 3770 0abe
00000320: 20a5 5e3e 8edb f93c 8221 7ebe 5c68 0bbe
00000330: 2152 19be 1e9d 2f3e 66fc 1ebe 9262 07be
00000340: 9eb9 1b3e abfc 17be b800 483e e6c4 f7bd
00000350: a2a5 c53d cd56 54bd 3d32 ad3d 7a46 ccbd
00000360: 00e0 1a3e 94c2 423d 1f98 5d3e b5bd 353e
00000370: 590d 97bd b531 f33c 5a63 613e 4183 e93d
00000380: 7719 7e3e 97b8 26be 7c8c 433e ea1e 583e
00000390: 87b9 a93c 3351 253e dfd0 173e 4c48 343c
000003a0: 735e bfbd 29f0 893e f3d1 28be a477 63be
000003b0: f5f5 713d fece d0bc c493 273d ffc9 2fbe
000003c0: a02a 6a3e 178b 2ebe 24ab 6e3e e134 67bc
000003d0: 2910 00bd 4c3e dabd bf8a 88be adfc 86be
000003e0: a845 3e3e 97e9 15be 7d83 4cbd 17e0 053e
000003f0: 0429 8ebe 3e64 6eba c428 32be 21ba f93d

bidirectional/backward_lstm/lstm_cell_5/bias1 f4 [512]
-0.0182645 0.039589435 0.026693663 0.039807152 -0.05932189 -0.0015315339 -8.286655e-05 0.03854799
0.073277146 0.0903214 0.021111166 -0.03877285 -0.0029927932 -0.005557663 -0.015351977 -0.046189986
-0.027990574 -0.037248805 -0.02666915 0.033335313 0.033424914 -0.0035607156 -0.037705403 -0.030221088
0.044686772 -0.018936174 -0.025841719 -0.034154702 -0.04676881 -0.00846279 -0.023278577 0.028380714
-0.0027271952 -0.0021885845 -0.018273389 0.02673296 -0.03976597 0.06794603 0.013766202 -0.0870478
0.0038667878 0.0014525454 -0.0035318558 -0.056162275 0.014923395 0.052959327 0.018191168 0.012955221
0.0015523506 0.048989326 -0.018703545 -0.0047630314 -0.0038363144 0.015403704 -0.11418888 -0.00076880696
-0.019168936 -0.012421733 -0.05542636 -0.013501037 -0.0049949163 0.03145947 -0.032299716 0.008153431
-0.016136887 0.015059857 -0.01576474 0.006254478 -0.010126509 0.012937348 -0.008885114 -0.019303387
0.0013517152 0.016981505 0.0050571235 -0.12307413 -0.012661049 -0.015380105 0.054419663 -0.08037705
0.015372001 -0.050415747 0.0032560332 -0.019943409 0.0074044894 -0.021912202 -0.014093444 -0.0363526
0.04953654 0.028582707 -0.0099151945 -0.057376526 0.016838215 0.024112873 -0.0027148668 -0.014178666
-0.023537947 0.01329164 0.0167876 -0.029463874 -0.010255007 0.03532598 -0.020371245 0.08612285
0.0008762963 0.018217973 0.03156587 -0.037125636 -0.0055626347 0.0604289 0.025323683 -0.01362021
-0.030786103 0.000100242 0.005208402 -0.02676653 0.018109126 -0.005026823 -0.02046572 0.026521046
0.005922889 0.08866381 -0.004468447 -0.014954166 -0.00344672 0.004149441 -0.0053983172 -0.03861474
0.97929066 1.0715528 1.0390444 0.98528934 1.0029768 1.0399622 1.0267245 1.0641593
1.0345554 1.1150683 1.0247049 1.0568434 1.0123863 0.9955541 1.0310365 0.9734153
1.0415047 1.0293738 0.99411947 1.0648837 1.0456914 1.0162106 1.0009981 1.0025117
1.0237062 1.053473 1.0264151 1.048245 1.0319377 1.0237437 0.99541473 1.0481529
1.0496951 1.000467 1.0012808 0.97362876 1.0393484 1.0137987 1.0280792 1.0810615
1.0563354 1.0017893 1.0166944 1.0555522 1.0268111 0.97742456 1.0060259 0.9983147
1.038608 1.0013573 1.0175841 1.0589443 1.0224801 0.99564296 1.0153598 1.081474
1.0694053 1.0763046 1.0334512 1.0178465 1.0016471 1.0028887 1.0470285 1.0683308
0.982387 1.0773072 1.0026776 1.0903475 1.0055101 1.0591569 1.0728885 0.9896212
1.0180748 1.0154551 1.0634084 1.0739523 1.004453 1.0373603 1.059635 1.0483432
1.0201637 1.0101343 1.052249 0.9932183 1.0184066 1.0583932 0.98822004 1.0245957
1.0307194 1.0245415 1.0080799 0.99613225 1.0152457 1.0092274 0.99971384 1.011738
1.0193366 0.9742439 1.0408919 1.004365 1.0390528 1.0527282 1.0542597 1.0116184
1.0062534 1.0404606 1.0131048 1.0247214 1.0214561 0.9668619 1.0431117 1.0022876
1.0487293 1.0005722 1.0060955 1.0361384 1.0404122 0.9996745 1.0483886 1.0456207
1.0202041 1.0438832 1.0054593 1.0289812 0.9957971 1.0746739 1.0126005 0.9797774
00000000: 6f9f 95bc 8828 223d abac da3c d30c 233d
00000010: 83fb 72bd c0bd c8ba a4c8 adb8 7fe4 1d3d
00000020: 5412 963d 6dfa b83d 53f1 ac3c 48d0 1ebd
00000030: bd22 44bb 0e1d b6bb dc86 7bbc b631 3dbd
00000040: 7d4c e5bc 3492 18bd 4379 dabc 9c8a 083d
00000050: 90e8 083d e55a 69bb fb70 1abd 3792 f7bc
00000060: 7a09 373d 0920 9bbc 03b2 d3bc cde5 0bbd
00000070: a790 3fbd 84a7 0abc b7b2 bebc ac7e e83c
00000080: beba 32bb 5b6e 0fbb 13b2 95bc 15ff da3c
00000090: a4e1 22bd 4a27 8b3d a38b 613c 1e46 b2bd
000000a0: ef69 7d3b 5663 be3a b576 67bb 6a0a 66bd
000000b0: 4181 743c e1eb 583d a505 953c 2342 543c
000000c0: 3e78 cb3a 08a9 483d 2d38 99bc 3413 9cbb
000000d0: ad6a 7bbb d15f 7c3c dcdb e9bd c389 49ba
000000e0: 2c08 9dbc 8684 4bbc c006 63bd 7433 5dbc
000000f0: 65ac a3bb a5db 003d b54c 04bd f895 053c
00000100: 8131 84bc 9ebd 763c 0e25 81bc 5df2 cc3b
00000110: a8e9 25bc 2cf7 533c df92 11bc 2322 9ebc
00000120: 092c b13a cc1c 8b3c 3ab6 a53b 4a0e fcbd
00000130: 4a70 4fbc d6fc 7bbc 27e7 5e3d b99c a4bd
00000140: d8da 7b3c be80 4ebd 2c63 553b 5c60 a3bc
00000150: 5ca1 f23b 3881 b3bc 30e8 66bc 77e6 14bd
00000160: d4e6 4a3d 4826 ea3c 5773 22bc a603 6bbd
00000170: 4cf0 893c 5c88 c53c e8eb 31bb a34d 68bc
00000180: a7d2 c0bc 2ec5 593c 2686 893c 395e f1bc
00000190: 9e04 28bc fab1 103d 99e1 a6bc 2d61 b03d
000001a0: 40b7 653a dc3d 953c 374b 013d 0d11 18bd
000001b0: c346 b6bb 4b84 773d 9d73 cf3c 4d27 5fbc
000001c0: 2333 fcbc 0439 d238 3eab aa3b 7b45 dbbc
000001d0: 9759 943c 0cb8 a4bb baa7 a7bc aa42 d93c
000001e0: cb14 c23b 5f95 b53d 0d6c 92bb 5102 75bc
000001f0: 5ee2 61bb 09f8 873b 5ee4 b0bb 7d2a 1ebd
00000200: cbb2 7a3f a428 893f 68ff 843f ec3b 7c3f
00000210: 8b61 803f 7b1d 853f b56b 833f 5f36 883f
00000220: 506c 843f 8fba 8e3f 8829 833f a546 873f
00000230: e095 813f a2dc 7e3f 01f9 833f bf31 793f
00000240: 0750 853f 85c2 833f 9d7e 7e3f 1c4e 883f
00000250: 37d9 853f 3013 823f b520 803f 4e52 803f
00000260: ce08 833f 34d8 863f 9261 833f e42c 863f
00000270: 8916 843f 090a 833f 80d3 7e3f e029 863f
00000280: 695c 863f 4d0f 803f f829 803f bc3f 793f
00000290: 5e09 853f 28c4 813f 1998 833f 3960 8a3f
000002a0: 0036 873f a23a 803f 0b23 823f 561c 873f
000002b0: 8c6e 833f 7f38 7a3f 75c5 803f 8d91 7f3f
000002c0: 1bf1 843f 7a2c 803f 3240 823f 7d8b 873f
000002d0: a1e0 823f 75e2 7e3f 4ff7 813f bd6d 8a3f
000002e0: 46e2 883f 59c4 893f 2148 843f cb48 823f
000002f0: f935 803f a85e 803f 0805 863f 10bf 883f
00000300: b77d 7b3f 34e5 893f bd57 803f 8290 8b3f
00000310: 8eb4 803f 7492 873f 6954 893f d157 7d3f
00000320: 4650 823f 6ffa 813f c41d 883f 4577 893f
00000330: ea91 803f 39c8 843f 1fa2 873f 1c30 863f
00000340: b994 823f 154c 813f 18b0 863f 8e43 7e3f
00000350: 265b 823f 6e79 873f fdfb 7c3f f425 833f
00000360: 9dee 833f 2d24 833f c308 813f 8602 7f3f
00000370: 92f3 813f 5d2e 813f 3fed 7f3f a180 813f
00000380: 9f79 823f 0c68 793f f23b 853f 088f 803f
00000390: afff 843f ccbf 863f fbf1 863f b67c 813f
000003a0: e9cc 803f d02d 853f 6bad 813f 122a 833f
000003b0: 13bf 823f 4384 773f af84 853f f64a 803f
000003c0: c33c 863f c012 803f bdc7 803f 2fa0 843f
000003d0: 3a2c 853f abea 7f3f 9931 863f e6d6 853f
000003e0: 0c96 823f f79d 853f e4b2 803f a8b5 833f
000003f0: 8fec 7e3f ea8e 893f e59c 813f b1d2 7a3f

std.constant16 f4 [512, 128]
-0.017950023 0.033691302 -0.0730772 -0.0045853276 0.035124496 -0.015435552 0.04910868 0.09196058
0.019077383 0.09152073 -0.021806154 0.07778308 -0.01288984 -0.03847349 -0.030995572 0.072337076
-0.04738058 -0.004017365 -0.0816643 0.05878598 -0.08759302 0.0981208 0.050543506 0.047201306
0.15357634 0.04630158 0.03328026 0.036515478 0.08954958 0.051934637 -0.038962692 0.09316902
0.042488255 0.057271354 0.014740514 -0.11581652 -0.07631575 -0.08762601 0.086281605 0.042171355
-0.06389432 -0.029169258 0.11075003 -0.074137546 0.028071536 0.08890979 -0.05917713 -0.04879053
-0.06148553 0.11160494 0.03021623 -0.048705015 0.039943762 0.09104446 -0.087975636 -0.037601884
0.051405888 -0.018540995 0.16527721 0.023431202 -0.00936815 0.014790111 0.020702705 0.07471438
0.073063456 -0.055728737 -0.01859714 0.04243714 -0.13876809 0.0196589 -0.020335123 -0.005110302
-0.12588213 -0.005111578 -0.047171913 -0.05195352 0.035018172 0.027686272 -0.06558513 -0.061497636
-0.011940194 0.03174075 -0.018708745 0.012979259 -0.017966174 0.13239652 -0.027424602 0.03384233
0.0373004 0.06771601 0.0010427816 -0.0976105 -0.11396641 0.05722793 -0.031988677 -0.05251593
-0.016645715 -0.049884174 -0.018791607 0.1202024 0.10419965 0.08487588 0.06463868 -0.01104235
0.007889213 0.09750659 -0.034007266 -0.10417232 -0.004650898 0.026139416 -0.013154195 0.016658155
0.043854296 -0.08578528 0.058754306 0.0013608019 0.0043241624 -0.02793685 -0.02680563 0.011278461
-0.015837528 0.0868137 -0.027846368 -0.10869834 -0.050683994 -0.026976403 0.015032671 0.016106969
0.044712696 -0.033165216 -0.021444477 0.0112275835 -0.04789627 -0.012781794 0.009349532 -0.0074356995
0.12288339 -0.010505324 0.007379803 0.09385342 0.03580421 -0.037293937 -0.04570109 -0.040315855
0.12719128 0.0018475412 -0.051166426 0.09064334 0.025935948 0.0070174723 -0.08163903 0.0031169301
-0.045400575 -0.010588987 -0.06381955 -0.043153387 -0.026022138 -0.07291011 0.088339396 -0.06945633
-0.017412983 0.061815698 -0.0040498967 0.01717298 0.02430984 -0.018210975 -0.033899028 0.009620082
-0.14848725 -0.03937517 0.05133061 -0.0074130693 0.04109043 -0.018959416 -0.0016694079 -0.050473675
-0.020594288 -0.09242049 0.017949767 0.017544197 0.010369442 0.055866007 -0.08942844 0.013171869
-0.094608724 0.031036936 -0.019553462 0.10451734 0.0015302829 -0.001296609 -0.026236368 -0.06774372
0.046704173 0.015453375 0.050817043 0.03574006 -0.03963707 0.06581248 -0.06692439 -0.0767023
-0.029871877 -0.032586005 -0.044046864 -0.0048146388 -0.009675788 0.02535923 -0.028180733 0.042385116
0.036715824 0.09527063 -0.06442783 -0.06872291 0.055145662 0.0032868423 -0.022471525 -0.008502098
0.004901402 0.048333902 0.03327116 0.12561361 -0.074744664 0.047592774 -0.06500762 -0.033946175
0.045701046 -0.051453095 0.047671545 -0.036398318 0.0074143982 -0.012123216 0.13644472 0.08174357
0.087842055 -0.11713771 0.06166132 -0.09050736 0.05135953 0.029692046 0.023398465 0.07012566
-0.06761508 0.021981243 0.03244887 -0.031835347 -0.019503482 -0.030849895 -0.005072391 0.07655692
0.13012742 0.025813691 0.081815995 -0.02689338 0.03532287 0.06254653 -0.009020198 0.008288464
00000000: ed0b 93bc e4ff 093d 80a9 95bd 8440 96bb
00000010: b4de 0f3d 66e5 7cbc 2f26 493d d455 bc3d
00000020: 2c48 9c3c 386f bb3d d2a2 b2bc bc4c 9f3d
00000030: e82f 53bc 6196 1dbd 6dea fdbc 7625 943d
00000040: 2412 42bd 1aa4 83bb 9d3f a7bd 91c9 703d
00000050: f863 b3bd 8ff3 c83d b506 4f3d 2856 413d
00000060: 1e43 1d3e baa6 3d3d e250 083d 4191 153d
00000070: c565 b73d 6ab9 543d 5897 1fbd 66cf be3d
00000080: 2a08 2e3d 5e95 6a3d 3282 713c 3631 edbd
00000090: 6f4b 9cbd 4475 b3bd 69b4 b03d dfbb 2c3d
000000a0: 06db 82bd 5ef4 eebc e9d0 e23d 6dd5 97bd
000000b0: 47f6 e53c 5616 b63d b863 72bd 94d8 47bd
000000c0: 40d8 7bbd 2191 e43d 0788 f73c e97e 47bd
000000d0: 129c 233d 8575 ba3d 922c b4bd 6f04 1abd
000000e0: fb8e 523d 49e3 97bc 6e3e 293e cbf2 bf3c
000000f0: de7c 19bc 3952 723c b898 a93c da03 993d
00000100: 4ba2 953d d143 64bd 0859 98bc 91d2 2d3d
00000110: 3919 0ebe b40b a13c d895 a6bc 5274 a7bb
00000120: 3fe7 00be 067f a7bb 5637 41bd 37cd 54bd
00000130: 376f 0f3d 52ce e23c 7f51 86bd f2e4 7bbd
00000140: cea0 43bc 9702 023d 1543 99bc f5a6 543c
00000150: cc2d 93bc f492 073e 8fa9 e0bc 419e 0a3d
00000160: 4ec8 183d b1ae 8a3d f2ad 883a 04e8 c7bd
00000170: 3967 e9bd d567 6a3d 8f06 03bd f21a 57bd
00000180: 985c 88bc 5953 4cbd dbf0 99bc ad2c f63d
00000190: a066 d53d 68d3 ad3d 4961 843d f9ea 34bc
000001a0: c241 013c 89b1 c73d 344b 0bbd 4c58 d5bd
000001b0: 8f66 98bb 5422 d63c b184 57bc af76 883c
000001c0: 90a0 333d 31b0 afbd 5ba8 703d ef5c b23a
000001d0: b4b1 8d3b d2db e4bc 7b97 dbbc 4bc9 383c
000001e0: b4bd 81bc 62cb b13d 111e e4bc 3c9d debd
000001f0: 059a 4fbd 9efd dcbc 984b 763c c3f2 833c
00000200: a924 373d 40d8 07bd 54ac afbc e6f3 373c
00000210: e12e 44bd bb6a 51bc c82e 193c 2ba7 f3bb
00000220: 49aa fb3d 861e 2cbc 46d2 f13b 3936 c03d
00000230: 6fa7 123d 87c1 18bd 1131 3bbd 3d22 25bd
00000240: 6e3e 023e 3229 f23a e393 51bd 37a3 b93d
00000250: a077 d43c d3f2 e53b 5d32 a7bd 6945 4c3b
00000260: f4f5 39bd 6e7d 2dbc d3b3 82bd 9bc1 30bd
00000270: 612c d5bc e551 95bd 49eb b43d 1f3f 8ebd
00000280: aca5 8ebc 7532 7d3d ffb4 84bb 59ae 8c3c
00000290: 6e25 c73c 2f2f 95bc b5d9 0abd 8c9d 1d3c
000002a0: 0b0d 18be dc47 21bd 0c40 523d 55e9 f2bb
000002b0: 704e 283d c750 9bbc 09d0 daba 7cbd 4ebd
000002c0: 5ab5 a8bc f446 bdbd 640b 933c d9b8 8f3c
000002d0: 98e4 293c c1d3 643d 4226 b7bd d3ce 573c
000002e0: 38c2 c1bd 2c41 fe3c 952e a0bc 300d d63d
000002f0: c693 c83a fbf2 a9ba a7ed d6bc 38bd 8abd
00000300: e04c 3f3d 2730 7d3c 8825 503d 2b64 123d
00000310: 7b5a 22bd b2c8 863d a80f 89bd 1816 9dbd
00000320: deb5 f4bc e778 05bd 7c6a 34bd 1ec4 9dbb
00000330: 3287 1ebc 29be cf3c 48db e6bc 049c 2d3d
00000340: 5563 163d 401d c33d bdf2 83bd 99be 8cbd
00000350: 6be0 613d 1068 573b 3416 b8bc 624c 0bbc
00000360: f19b a03b c5f9 453d 5747 083d dba0 003e
00000370: bb13 99bd a4f0 423d b722 85bd 250b 0bbd
00000380: 0531 3b3d 7bc0 52bd 3d43 433d 6716 15bd
00000390: 7bf4 f23b 74a0 46bc 2ab8 0b3e 2c69 a73d
000003a0: 89e6 b33d e5e5 efbd 9590 7c3d ec5b b9bd
000003b0: 5f5e 523d bc3c f33c 23ae bf3c 0b9e 8f3d
000003c0: c679 8abd 0212 b43c 1be9 043d c865 02bd
000003d0: c4c5 9fbc ebb8 fcbc 4d36 a6bb e0c9 9c3d
000003e0: 1f40 053e 3c77 d33c 258f a73d 814f dcbc
000003f0: b7ae 103d 6518 803d 74c9 13bc 56cc 073c

std.constant17 f4 [512, 3]
-0.005463415 -0.076470494 0.1589088 0.03265047 0.007492776 0.06710495 -0.20174287 -0.08364621
-0.100416884 -0.035353944 -0.027196888 -0.012158739 -0.009826715 -0.072789975 0.04913933 -0.031024933
-0.13224253 0.10150056 0.00029296553 0.03129096 0.08288525 0.017496755 0.08420526 -0.071411975
0.07579062 -0.05807963 -0.043749385 0.03783641 -0.019928375 0.0877548 0.06282072 -0.0341348
0.009777301 -0.105797976 -0.09327965 0.20577751 -0.15460901 0.07117393 -0.044493992 -0.052103568
-0.05738515 -0.038349904 -0.19159453 -0.07872075 -0.06465705 0.04937885 -0.102051996 -0.118514284
0.104236126 -0.21036595 0.0823059 -0.13824576 0.071838446 -0.17601617 -0.10256411 -0.10402736
-0.06431538 0.09623858 0.043044798 -0.03132691 0.011595406 -0.06380527 0.026932713 -0.014119996
0.0021781933 -0.21551211 0.02215015 0.09633734 -0.12794837 0.010424934 -0.008789042 0.22020432
0.15519083 -0.006534293 -0.06332233 -0.13290942 0.06507306 0.067271695 -0.021938412 0.07805169
-0.048514903 -0.014293434 -0.07869359 -0.17964125 -0.13390607 -0.014291218 0.1290268 -0.16864099
0.01307414 0.024641754 0.021866765 -0.1080485 -0.08553757 0.0551346 -0.07750509 0.034703273
0.06854351 0.06916139 -0.18544468 -0.18053862 -0.017117316 0.016370788 0.012301559 -0.061623633
0.031512246 -0.013526612 -0.0011953881 0.14332604 0.026128113 0.008845577 0.21981458 0.024981165
0.113557406 -0.03571854 0.03686744 -0.11398508 -0.011339065 -0.060499113 0.007470367 -0.21552905
0.014438925 -0.12989031 -0.13124947 0.006921544 -0.06788527 -0.06306649 -0.1620517 0.09729566
-0.013786673 0.13488322 0.13407278 0.01289157 0.08590858 0.054978237 -0.06813385 -0.10902625
-0.03077517 -0.014904693 0.106577456 0.024237307 -0.15626201 -0.16307062 0.094854906 -0.018276177
-0.067229174 -0.092069454 0.1522791 0.0763105 -0.02995682 0.11135407 0.24959914 -0.047337186
-0.12702352 0.062095534 -0.070322104 -0.084672004 -0.09868954 -0.016589334 0.006143392 -0.044514585
-0.06682542 -0.18685265 0.10218978 0.09449565 0.17954682 0.011565954 -0.077317275 -0.17937428
0.123733 0.083589956 0.076162755 0.059249442 -0.16780932 0.13976023 -0.19439761 -0.032377116
0.18440633 -0.13738476 -0.13266852 -0.008709571 0.13518263 0.00079804007 -0.058641706 -0.042499628
0.083332345 0.022699798 0.11787423 -0.062498827 -0.1011598 -0.04716406 0.059727717 -0.20643647
0.080065034 -0.09766926 -0.11622359 -0.09432534 0.061271887 -0.1186238 -0.02100512 -0.008424212
-0.08950761 -0.1130187 0.08180606 -0.088020414 -0.11258019 -0.014112134 -0.008482066 -0.10776713
-0.036374275 -0.21242972 -0.091768645 -0.028679412 -0.18713367 0.08236546 0.054949664 -0.15413308
-0.17804171 -0.12845601 -0.08903943 -0.017066663 -0.12530662 0.009601838 0.007403551 -0.2256527
0.14677438 -0.09995128 0.09449101 -0.09356461 -0.055325866 -0.094950676 -0.00463581 0.05829354
0.03563765 0.17662977 0.07224538 -0.06914122 -0.059658412 0.0061789304 0.08182633 -0.10972619
0.07681421 -0.08442869 -0.1077974 0.06808461 0.084743954 -0.08527195 -0.005430783 -0.093406886
0.021790592 0.12741667 -0.10952056 0.0026980508 0.06905986 -0.09736775 -0.107104845 -0.05369612
00000000: 7206 b3bb 909c 9cbd fdb8 223e 80bc 053d
00000010: f685 f53b 526e 893d af95 4ebe b44e abbd
00000020: 5ea7 cdbd 4ccf 10bd 02cc debc 7335 47bc
00000030: 3b00 21bc e912 95bd 5246 493d 0028 febc
00000040: 966a 07be 87df cf3d 2b99 9939 f32a 003d
00000050: bebf a93d 5b55 8f3c cf73 ac3d 7140 92bd
00000060: 1d38 9b3d e8e4 6dbd 8e32 33bd 5afa 1a3d
00000070: d540 a3bc cab8 b33d 26a8 803d efd0 0bbd
00000080: f930 203c 9cac d8bd 6709 bfbd 57b7 523e
00000090: d351 1ebe a3c3 913d 553f 36bd 8d6a 55bd
000000a0: b10c 6bbd ca14 1dbd 5b31 44be 5838 a1bd
000000b0: ea6a 84bd 7a41 4a3d a300 d1bd 9eb7 f2bd
000000c0: c079 d53d 2c6a 57be ff8f a83d 4c90 0dbe
000000d0: 0920 933d 953d 34be 220d d2bd 4c0c d5bd
000000e0: c8b7 83bd bc18 c53d be4f 303d a550 00bd
000000f0: a8fa 3d3c 56ac 82bd fea1 dc3c 8e57 67bc
00000100: 05c0 0e3b 35af 5cbe 3b74 b53c 834c c53d
00000110: e604 03be 58cd 2a3c eaff 0fbc 3e7d 613e
00000120: 58ea 1e3e 9f1d d6bb 23af 81bd 6819 08be
00000130: 0645 853d bec5 893d 2fb8 b3bc 90d9 9f3d
00000140: 90b7 46bd 022f 6abc 1b2a a1bd e0f3 37be
00000150: ac1e 09be b625 6abc 9a1f 043e 39b0 2cbe
00000160: eb34 563c 81dd c93c ee21 b33c 8848 ddbd
00000170: 522e afbd d1d4 613d fdba 9ebd 0525 0e3d
00000180: 8a60 8c3d 7da4 8d3d 36e5 3dbe 1edf 38be
00000190: 9d39 8cbc 081c 863c 7a8c 493c 1069 7cbd
000001a0: fc12 013d b99e 5dbc 92ae 9cba 10c4 123e
000001b0: a00a d63c 0aed 103c 1317 613e 4da5 cc3c
000001c0: c990 e83d 9b4d 12bd 5002 173d 0271 e9bd
000001d0: 7cc7 39bc ebcd 77bd fbc9 f43b a6b3 5cbe
000001e0: 3e91 6c3c f701 05be 4366 06be 1fce e23b
000001f0: 6f07 8bbd 0129 81bd e1f0 25be f242 c73d
00000200: 7fe1 61bc d41e 0a3e 604a 093e 2a37 533c
00000210: d6f0 af3d dc30 613d c389 8bbd 2849 dfbd
00000220: 361c fcbc d032 74bc 4845 da3d 518d c63c
00000230: 2603 20be fcfb 26be 4a43 c23d ecb7 95bc
00000240: 73af 89bd e98e bcbd 0def 1b3e ae48 9c3d
00000250: 0168 f5bc 9a0d e43d eb96 7f3e a3e4 41bd
00000260: 7412 02be e357 7e3d 0905 90bd 8468 adbd
00000270: be1d cabd 5be6 87bc 824e c93b ed54 36bd
00000280: c4db 88bd 4d56 3fbe e048 d13d ef86 c13d
00000290: 1fdb 373e 217f 3d3c 8558 9ebd e4ad 37be
000002a0: ba67 fd3d 3631 ab3d 38fb 9b3d 8baf 723d
000002b0: 35d6 2bbe 4e1d 0f3e 2b10 47be de9d 04bd
000002c0: 03d5 3c3e 97ae 0cbe 42da 07be 97b2 0ebc
000002d0: 516d 0a3e 9033 513a 4932 70bd 1714 2ebd
000002e0: 26aa aa3d edf4 b93c 0b68 f13d c5fe 7fbd
000002f0: df2c cfbd 1a2f 41bd 0da5 743d 1564 53be
00000300: 23f9 a33d d206 c8bd a206 eebd a52d c1bd
00000310: 3bf8 7a3d 09f1 f2bd ee12 acbc b505 0abc
00000320: c44f b7bd 5976 e7bd f089 a73d 0c44 b4bd
00000330: 7190 e6bd 9536 67bc 5df8 0abc 03b5 dcbd
00000340: 31fd 14bd 2d87 59be 33f1 bbbd 16f1 eabc
00000350: f89f 3fbe 39af a83d e612 613d 10d5 1dbe
00000360: 9150 36be f989 03be 4e5a b6bd 63cf 8bbc
00000370: 6150 00be 0751 1d3c 7d99 f23b 8011 67be
00000380: 064c 163e 42b3 ccbd 8184 c13d cd9e bfbd
00000390: 609d 62bd 8075 c2bd fee7 97bb 35c5 6e3d
000003a0: c9f8 113d 6fde 343e 63f5 933d e999 8dbd
000003b0: 615c 74bd a078 ca3b 9094 a73d 20b8 e0bd
000003c0: c550 9d3d f3e8 acbd e2c4 dcbd f26f 8b3d
000003d0: 3d8e ad3d 0fa3 aebd b6f4 b1bb 1c4c bfbd
000003e0: 2f82 b23c 8479 023e 514c e0bd c8d1 303b
000003f0: 426f 8d3d be68 c7bd c959 dbbd 76f0 5bbd
