assets/My_TFlite_Model.tflite (tflite, 699148 bytes, 12 tensors)

dense_7/bias f4 [11]
00000000: 927c b33d 26b0 e3bd 541b e6bd 6be3 25bd
00000010: a90e 003d f24f 593c 212a a23c a931 313d
00000020: e4a3 cebc c51b 91bd 5f89 aebb
0.08763994 -0.11117582 -0.11235681 -0.040500086 0.03126398 0.013263689 0.01979548 0.04326025
-0.025224634 -0.07085375 -0.0053264345

dense_6/bias f4 [128]
00000000: 2b47 413d 7517 b73d 015b 4f3d 7685 19bc
00000010: 1ee0 b03c 4081 72bd fcb1 8b3d f132 4bbd
00000020: 405c 68bc 0cd4 9e3d 53b3 f9bc 091d 4b3c
00000030: d9b9 96bd 5dcc 7fbb fb1a 3c3d c600 3c3d
00000040: 23fe 8ebd ab32 74bc e706 3fbe 1e93 f1bc
00000050: 7d25 5e3c d36f e13d 02a3 1c3d 8a8f 8abd
00000060: aab0 b4bb 1d6c adbd b5bc 32bd d554 8d3d
00000070: 645a 68bd b713 2abd 0ac9 8ebc c3d1 b5bd
00000080: e99b 4e3c 47d4 6dbd 1692 d83c de36 08bd
00000090: 5484 9a3d beb1 573d 1915 883c 4891 1abd
000000a0: ab4f 18bd cb03 70bc f7c0 1cbc ad84 4b3b
000000b0: 3602 f63c 9c99 2e3d 6d43 3c3d 26bf 00bd
000000c0: 722a 4f3d 5ba4 acbc 48d5 9d3d c6d7 b5bd
000000d0: 18fa 113e 231e 26bd db42 6c3d aa2f 693b
000000e0: 89aa 793d af9c 3f3d cd48 273d 883d 6c3a
000000f0: e612 0c3e ebbc b83d 5b48 a9bd b9a6 073d
00000100: 6249 f8bd 0df0 5fbd 80b6 8e3d a7b5 adbd
00000110: d3f1 323d 1317 e83b 47bc 80bd bec5 66bd
00000120: 2d88 c53d 9bfe 73bd efbf d93c 9ba7 17ba
00000130: f6bb b33d 99fc bb3d dded 1b3d 5dd5 043d
00000140: 8002 1ebd a8f8 183e 7f25 dc3c ef83 a2bd
00000150: 86d6 21bd 059f afbc 0077 b13d 2f06 d1bd
00000160: 1615 413d ffff 91bd ef31 c1bd 0cd3 cbbc
00000170: d22d 1abd 1595 c9bd a568 cfbd bb87 843c
00000180: be63 063c 4f4c 8dbc 56d1 c7bd 7def 15bd
00000190: 88d7 7fbc cd32 73bd 980a ff3d fd0a 70bd
000001a0: 0bce cb3d 820f 13be 528e 9fbd 9930 133d
000001b0: 28cf 59bd 6219 153d 1132 163d ad1a 9dbd
000001c0: 3758 05bd 4901 6fbc 52c2 033d 5519 0c3d
000001d0: ec12 9cbd 9f57 7b3d c054 0c3e 9ab3 313d
000001e0: 06aa 3bbc 458b ddbb 29bb c8bd 1f2b 56bd
000001f0: 28ad 9f3d 395c 023c 440a 313a 3da2 3fbd
0.04718701 0.08940021 0.050623897 -0.0093701985 0.021591242 -0.059205294 0.06821057 -0.04960913
-0.01418215 0.077552885 -0.030481016 0.012397059 -0.073596664 -0.0039031722 0.045924168 0.045899175
-0.069820665 -0.014904658 -0.18654977 -0.029489096 0.013558743 0.11007657 0.038241394 -0.06765659
-0.005514224 -0.084678866 -0.043636996 0.06900946 -0.05672683 -0.041522708 -0.017429847 -0.088778995
0.012610414 -0.05806377 0.026436847 -0.03325545 0.07544771 0.052659743 0.016611623 -0.037736207
-0.037185352 -0.014649342 -0.009567491 0.0031054423 0.030030351 0.042626962 0.04596274 -0.031432293
0.05057759 -0.021074465 0.07706696 -0.08879046 0.1425556 -0.040556084 0.057680946 0.0035581389
0.06095365 0.046780284 0.040840913 0.00090118544 0.13679084 0.09020408 -0.08265754 0.033117983
-0.12123372 -0.05467229 0.06968403 -0.08481913 0.043687653 0.007082829 -0.06285911 -0.056340925
0.09645114 -0.059568983 0.026580779 -0.0005785168 0.08776085 0.091790386 0.03806864 0.03243004
-0.038576603 0.14938605 0.026873348 -0.079353206 -0.039511226 -0.021438131 0.086652756 -0.102062576
0.04713925 -0.071289055 -0.09433352 -0.024880908 -0.037641354 -0.09842888 -0.10127381 0.016178003
0.008202491 -0.0172483 -0.097567245 -0.036605347 -0.0156153515 -0.05937462 0.124531925 -0.05860423
0.09951409 -0.14361385 -0.07790817 0.03593502 -0.053176075 0.03640116 0.03666884 -0.076711036
-0.03255483 -0.014587709 0.03216774 0.034203846 -0.076207966 0.06136286 0.13704205 0.043384172
-0.011454111 -0.006760987 -0.09801323 -0.052287217 0.07796699 0.007956558 0.0006753544 -0.04678558

bidirectional_2/forward_lstm_2/lstm_cell_13/bias f4 [512]
00000000: 44e3 00bc 886a 54bb 3231 0e3c 8ef6 243d
00000010: 0037 743b c1c5 863b be11 173c 0137 283a
00000020: df41 533c 671e b63c 8b27 8a3c 32a3 2f3a
00000030: 9e83 003d bca4 263c 464e 893b 26b5 dd3b
00000040: 7930 aa3c 97c4 703c 1995 6ebb fc4b 543b
00000050: 3637 e13a 99a2 403c 6717 723d b4d0 8e3c
00000060: f49b b1b9 ade9 9d3c ac06 7e3c 39ac 8d3b
00000070: 00e4 383c 29f1 be3c be9b 20bc 50d9 863c
00000080: 429d dcbb 9138 c73c 86bd a13c a3b9 923b
00000090: 2ae3 16bc ce88 c1ba 4a2e a13c fd67 7bbc
000000a0: 341f 23bc b2dc 6a3c fceb 413c 710d 2ebc
000000b0: 21c7 a6bb 5105 2c3b f4f3 eb3c 3e32 54bc
000000c0: 37bd c33c b516 a43c d38d 873c a637 fd3c
000000d0: acde b7bb e467 c3bc 7e43 d9bc 5969 f93c
000000e0: a4a7 9fbc 7b7d 083d a72b 53bb 2cbe 65bd
000000f0: e937 eebb eb4a 243d a74a 383c 44e4 8cb9
00000100: c74c 8fbc eb8b c23c 8449 f03c 60b7 0a3d
00000110: 3013 d0bc afe8 9b3b 5a38 bfbc 8afd e3ba
00000120: 4cb6 233b 1e85 3e3c f281 ee3b f63f 953d
00000130: da1b 2b3c b733 0a3d fb01 8e3c e247 e13c
00000140: d01b 18bc 9659 2a3b 82cf e7bb 3a07 9a3c
00000150: 88cc 09bc 52bb 12bb 9346 36bc c43e c53c
00000160: d575 443c ebf6 c33b 8af3 073c 0855 043b
00000170: 1d28 f5bb 3744 96ba 065a bdba c387 fc3c
00000180: a3a1 77b8 0158 223c 1850 dabb 9008 933c
00000190: 96f9 7dbc e27c df3c dcb3 813b fa98 9dbc
000001a0: 4c3c 393c e3ec 633d 02db 94bc 32da 9d3b
000001b0: b67f 4bbd 3122 393b a364 d3bb 5b15 993c
000001c0: 7f6e 6bbc 9231 9fbb 678b d83a 38c8 8b3d
000001d0: da9c fdba 4163 14bc 4a04 103a c50a 8ab9
000001e0: a096 043a a87c cd39 3a83 983c e4df 9a38
000001f0: 2287 003d ffa7 3e3c 79bf c83c ab0c fe3c
00000200: 5de1 803f 81a4 793f b13f 823f 7360 833f
00000210: 86ef 7e3f cceb 813f 68e8 843f 8516 843f
00000220: 6021 883f 1da4 813f 58a3 7d3f 9e97 823f
00000230: 7e71 833f 87e5 813f 1711 863f e9ed 7f3f
00000240: d9ef 843f 3e98 833f 8f14 813f f43e 803f
00000250: 2b95 803f 80a5 7a3f 03dd 883f 677a 813f
00000260: d462 823f 6a8e 823f 657d 833f 15be 7f3f
00000270: 6e94 813f 9e81 843f 954d 793f 80ec 833f
00000280: 5ba4 773f 3609 853f 2edb 813f aa55 883f
00000290: 0b3d 833f bc69 803f 77f9 823f e3d1 783f
000002a0: 4a94 823f f88c 813f e8d6 833f 8f5b 7f3f
000002b0: 57ba 823f c48c 813f 20cc 823f 8711 7f3f
000002c0: 2084 853f 787d 843f 9d67 823f 9086 883f
000002d0: 0d09 813f 835c 813f c687 793f 6c94 893f
000002e0: 31c4 7e3f 6ab9 833f 461f 7f3f 1248 743f
000002f0: 25f6 7d3f e754 873f 0591 833f fc00 823f
00000300: 4104 803f af01 873f c860 843f 8a8c 863f
00000310: 4789 7c3f 9bd9 813f 4454 803f 04fa 813f
00000320: 6eb9 803f 5269 803f f2cf 833f 0f58 863f
00000330: d03c 813f 6e97 803f 5b08 833f 3fb1 833f
00000340: 4500 7f3f fed7 803f bb6b 803f 0892 833f
00000350: 0aa0 803f 4660 813f 7a63 7b3f 2f1b 873f
00000360: 0d88 803f fff1 813f 1205 823f be87 823f
00000370: 6e8b 7f3f 224b 7d3f 4b36 813f bea6 833f
00000380: 41cc 803f c36b 823f 5995 803f e8e4 7d3f
00000390: cd8f 7e3f 545a 863f e52d 833f 77d1 803f
000003a0: 2fec 813f 2369 843f 4e4e 7f3f d5da 813f
000003b0: 63bd 773f 1448 813f 915d 833f 4c3d 833f
000003c0: 7e41 813f cbe9 7e3f aaa1 803f 57c6 823f
000003d0: 65d4 833f 8047 803f 7921 803f 16ae 833f
000003e0: 64fe 813f 0442 803f d50b 833f 5961 823f
000003f0: fbb2 853f 136c 823f 4d09 833f 5f90 7c3f
-0.007866684 -0.003241213 0.008678721 0.040274195 0.0037264228 0.0041129296 0.009220539 0.00064168876
0.012894123 0.022231294 0.016864559 0.0006700038 0.03137552 0.010171112 0.004190239 0.0067659793
0.020775067 0.014695308 -0.0036404787 0.0032393923 0.0017182592 0.011757516 0.05910435 0.017433502
-0.00033876265 0.019276464 0.01550452 0.004323509 0.011284828 0.023308353 -0.009802757 0.016461045
-0.006732614 0.024318965 0.019743692 0.004477696 -0.009209434 -0.0014765502 0.019675393 -0.015344617
-0.00995617 0.014334844 0.011836048 -0.010623322 -0.005089656 0.0026248286 0.02880285 -0.012951432
0.023893936 0.020030359 0.01654712 0.030910324 -0.0056112614 -0.02385325 -0.02652144 0.030445741
-0.019489117 0.033322793 -0.0032222064 -0.056089565 -0.0072698486 0.04011051 0.011248267 -0.00026872952
-0.017492665 0.023748359 0.02933193 0.033866286 -0.025399774 0.0047579627 -0.0233423 -0.0017394286
0.0024980484 0.011628417 0.0072786743 0.0728759 0.010443652 0.033740725 0.017334929 0.027500097
-0.009283975 0.0025993339 -0.0070742974 0.018802274 -0.00841058 -0.0022389484 -0.011125225 0.02407778
0.011990984 0.0059803627 0.00829781 0.0020192284 -0.0074815885 -0.0011464421 -0.0014446385 0.030826455
-5.9039925e-05 0.009908677 -0.00666238 0.017948419 -0.0155014 0.027281228 0.0039582085 -0.019237984
0.01130588 0.055645835 -0.018170837 0.0048172707 -0.04968234 0.002824914 -0.006451206 0.01868694
-0.014369606 -0.004858204 0.0016521037 0.06825298 -0.0019349114 -0.009056867 0.0005493803 -0.00026329435
0.0005057845 0.00039193523 0.018617261 7.384995e-05 0.031378873 0.011636733 0.024505364 0.0310119
1.0068775 0.9751664 1.0175687 1.0263809 0.99584234 1.0150084 1.0383425 1.0319372
1.0635185 1.0128208 0.9907737 1.020252 1.026901 1.0148171 1.0473965 0.999724
1.0385696 1.0280836 1.0084399 1.0019212 1.0045522 0.9790878 1.0692447 1.0115479
1.018641 1.0199711 1.0272642 0.9989942 1.0123422 1.0352056 0.97384006 1.0306549
0.9673516 1.0393436 1.0145013 1.0651143 1.0253004 1.0032268 1.0232381 0.9719526
1.0201504 1.0121145 1.0299959 0.9974908 1.0213116 1.0121083 1.0218544 0.9963612
1.0430946 1.035079 1.018787 1.0666065 1.0080887 1.0106357 0.974728 1.074842
0.99518114 1.0290959 0.99657094 0.9542247 0.9920371 1.0572785 1.0278631 1.015655
1.0001298 1.0547389 1.0342035 1.0511639 0.9864697 1.0144533 1.0025716 1.0154424
1.0056589 1.0032141 1.0297835 1.0495623 1.0096684 1.0046213 1.0236925 1.0288466
0.99609786 1.0065916 1.0032877 1.027894 1.004884 1.0107505 0.98198664 1.0555171
1.0041519 1.0151976 1.0157797 1.0197675 0.9982213 0.9894277 1.0094694 1.0285261
1.0062333 1.0189136 1.0045577 0.9917741 0.9943817 1.0496316 1.0248381 1.0063924
1.0150203 1.0344585 0.9972886 1.0144907 0.96773356 1.0100121 1.0262929 1.0253081
1.0098112 0.9957549 1.0049336 1.0216779 1.0299193 1.002182 1.0010215 1.0287502
1.0155759 1.0020146 1.0237986 1.0185958 1.0445246 1.0189232 1.0237213 0.9865779

bidirectional_2/backward_lstm_2/lstm_cell_14/bias f4 [512]
00000000: 3b42 cf3c 690d b0bb 6a6f 04bd 1ef5 36bd
00000010: 96aa 4fbc ca8a 983b 705c f3bb c602 6cbc
00000020: 78a8 53bc 7b9f 5e3a 56c2 6dbc 18d4 c83c
00000030: 7fcd 7e3c 528f 50bc 21f3 a4bc 99e1 fcbc
00000040: c5d2 393d daba 4c3d 9976 963c 9ad2 c13c
00000050: b44d 5c3c 2059 cbbb 2108 6dbc a3d6 603d
00000060: 924d ad3c ab0d 033c efbd 60bb 80e8 a63c
00000070: eda8 073c 8e3e 40bc 485b 37bd c72e 75bc
00000080: 7452 083c f881 023c 037e 063d 4885 c83c
00000090: 0b1f 9fb9 a111 003d f52d 593b d702 fbbc
000000a0: a408 b1bb 3b9a 713c addd bb3c 4e32 dabb
000000b0: 8cb7 1d3d 39e5 ba3d 7785 13bd eff3 0b3c
000000c0: 50b0 9abc a270 153c f1cf 67bc 4ba2 a8bc
000000d0: d9e2 53bc f39e 1d3a 04ef 0dbc a70f 233d
000000e0: 77c3 fcbc 1130 e33c ad76 cc3c a744 643b
000000f0: 6baa 1b3d 7a72 fabb 4d56 c13c 0287 2b3b
00000100: fc47 5d3c d9ac 05bb a9de d33c e5ce 8939
00000110: 63bd debb 6cc9 20bc 3e93 22bc 5056 af3b
00000120: cebc b2bc 4dae 953c 69e1 ea39 7147 78bc
00000130: 94f9 b53c 311b b8bb daa7 3bbc 9517 9f3d
00000140: c1e6 e3bc dd4e c83b 46a9 403c 551d 6f3c
00000150: d8ec c2ba 01c5 203c 3835 a1bc 5546 173d
00000160: 91c5 823c 85a1 033d 1cd0 9dbc 098d a8bc
00000170: 0fb7 9dbc 2a6c 8a3d f293 a4bc e1e5 213c
00000180: 34b2 cabb ab6c 5a3c 45c4 eb3c c092 b63c
00000190: 8838 243b 8c47 343d d9e8 923a 2619 1cbc
000001a0: 5596 fb3b 8586 403d c9ac 903c 8473 42bc
000001b0: 8eb9 1fbc ef1e b53c 5590 15bc 41fc 363d
000001c0: a6a4 823d ccf0 f03c ce83 9b3b 2f29 49bc
000001d0: e941 173b 90a7 523c fb69 16bb 6ff3 fe3c
000001e0: f69b 89bb 2922 c53c e972 36bc 9c5d 173d
000001f0: 5f3e 17bd ec58 bf3c 7ed6 91b8 70a4 c3bb
00000200: fc48 873f 6101 7e3f 4692 783f e23b 7b3f
00000210: b9df 823f 76d7 813f a87b 803f 1196 7f3f
00000220: ceb0 803f d8fc 813f 3f43 7c3f 67bd 823f
00000230: 5049 823f 5698 7c3f ec61 793f e0c9 7d3f
00000240: bd96 843f 8799 823f 8c24 843f ebae 843f
00000250: 9837 813f 8d94 813f e21d 7c3f 9b0e 7e3f
00000260: 6010 813f 0631 823f 00c6 7e3f 81a3 833f
00000270: 8b1d 833f 0e6e 803f 712b 773f cbc4 7b3f
00000280: 1d62 823f ba38 803f 08e9 843f 1ab4 843f
00000290: 5b8a 853f 8013 873f f00b 813f 714c 7e3f
000002a0: 0542 7f3f d5c3 833f f538 843f 8785 783f
000002b0: 98ce 863f 2b31 8a3f 58fc 793f f329 823f
000002c0: ddfc 7c3f fd2a 813f d4c8 7d3f 8d0e 7d3f
000002d0: 72bf 7b3f 087b 803f f666 803f add0 843f
000002e0: a752 843f dafc 823f d34a 843f 670a 813f
000002f0: f5f5 843f 4eb0 7e3f 86ce 823f 8334 803f
00000300: 985d 823f b7b5 7e3f 334b 823f de96 803f
00000310: d3fb 7f3f fed5 803f 2ffe 7c3f 2247 823f
00000320: 7ce1 7b3f 4464 843f 60e3 813f 30ab 793f
00000330: df7e 853f 3f8e 803f 863b 753f 04a1 8a3f
00000340: 94cd 7c3f aaf6 7e3f d047 833f f0cc 813f
00000350: 961d 7d3f 2747 823f dbd6 793f df77 823f
00000360: 78b7 7e3f d8a8 833f 79d1 793f 8e3d 803f
00000370: 36dd 793f 2fcf 883f 1502 7b3f 6e04 7f3f
00000380: 3839 803f a8e0 813f d4a6 843f 1c68 823f
00000390: eea9 813f d488 813f 9927 7f3f b4aa 7d3f
000003a0: 4b26 7e3f ec81 873f 9815 843f d79d 793f
000003b0: 93bf 7d3f 4b82 823f e1e2 7a3f e142 8b3f
000003c0: cbbc 853f 930a 883f 6a93 823f 0004 823f
000003d0: b356 7f3f e943 833f f28e 813f bb81 853f
000003e0: 0691 813f 3105 843f d774 823f bac7 823f
000003f0: 6252 7c3f 531c 823f 2922 7e3f 1fc1 803f
0.025300136 -0.0053726924 -0.032332815 -0.044667356 -0.012674948 0.004655217 -0.007426791 -0.014404958
-0.012918584 0.00084923924 -0.014511665 0.024515197 0.015551924 -0.012729483 -0.020135464 -0.030869292
0.04536702 0.049982883 0.018367099 0.023659993 0.01344626 -0.006205693 -0.01446727 0.054892194
0.021155152 0.007998864 -0.0034292897 0.020374537 0.008280021 -0.011733664 -0.044764787 -0.014964766
0.00832044 0.007965557 0.032835018 0.024477616 -0.00030349972 0.031266812 0.0033138965 -0.030641003
-0.0054026414 0.014746244 0.022932852 -0.006658829 0.038505122 0.09125752 -0.036015954 0.008542045
-0.0188829 0.009121092 -0.014148698 -0.0205852 -0.012932503 0.000601276 -0.008662943 0.03980985
-0.030854924 0.02773288 0.024958933 0.003483096 0.03800432 -0.007643041 0.023600722 0.0026173
0.013505932 -0.0020397215 0.025863009 0.00026284825 -0.006797479 -0.009813648 -0.009922801 0.0053508654
-0.021818545 0.01827159 0.00044799902 -0.015153752 0.022213735 -0.005618476 -0.011453593 0.0776817
-0.027819993 0.006112917 0.011759108 0.014594396 -0.001487161 0.009812594 -0.019678697 0.03693231
0.015963348 0.03213646 -0.019264273 -0.020575063 -0.019252328 0.06758912 -0.020090077 0.009881468
-0.0061857942 0.0133315725 0.028780112 0.022286773 0.002505811 0.044013545 0.001120831 -0.00952748
0.007677833 0.047003288 0.017660515 -0.011868361 -0.0097488295 0.022109477 -0.00912865 0.04467416
0.063790604 0.029411696 0.004745937 -0.012277885 0.0023080057 0.012857333 -0.0022951353 0.031121938
-0.0041995 0.02406414 -0.011135795 0.036954507 -0.036924716 0.023357831 -6.954091e-05 -0.00597053
1.0569148 0.99220854 0.97098196 0.9813825 1.0224525 1.0143878 1.0037737 0.9983836
1.0053957 1.0155287 0.9854011 1.0214051 1.0178623 0.98669946 0.9741504 0.9913616
1.0358502 1.0203103 1.0323653 1.0365881 1.0095091 1.0123459 0.984831 0.99241036
1.0083122 1.0171211 0.99520874 1.0284272 1.0243391 1.0033586 0.9655066 0.9834716
1.0186192 1.0017312 1.0383615 1.0367463 1.0432848 1.0552826 1.0081768 0.9933539
0.9971011 1.0294138 1.0329882 0.97078747 1.0531797 1.0796255 0.9765067 1.0169052
0.9882334 1.0091244 0.99134564 0.9885033 0.98339 1.0037546 1.0031421 1.0376183
1.0337723 1.0233414 1.0335335 1.00813 1.038756 0.9948777 1.0219276 1.0016025
1.0184813 0.99496025 1.0179199 1.0046041 0.9999363 1.0065305 0.98825353 1.0177958
0.98390937 1.0343099 1.0147514 0.97526836 1.0429343 1.004341 0.9579395 1.0830388
0.9875119 0.9959513 1.025629 1.0140667 0.9887327 1.0177964 0.9759347 1.0192832
0.994987 1.0285902 0.97585255 1.0018785 0.97603166 1.0688227 0.9805005 0.99616134
1.0017462 1.0146685 1.0363412 1.0188022 1.0129983 1.0119882 0.99669796 0.990886
0.9927718 1.0586524 1.031909 0.9750647 0.99120444 1.0196012 0.9800244 1.0879785
1.044824 1.0628227 1.0201237 1.0157471 0.9974167 1.02551 1.0121748 1.0430216
1.0122383 1.0314084 1.0191907 1.0217202 0.98563206 1.0164894 0.99270874 1.0058936

std.constant6 f4 [128, 256]
00000000: c5d8 94bd 4ec2 723d 81bb 03be f0e2 0b3d
00000010: c61f adbd 45f5 e6bd e2f0 a0bd 0640 123e
00000020: 49de c63d 70be b03c a9ba 1d3d aabb 563c
00000030: 058a 933d abfb b7bc 643f d3bd be7e b9bb
00000040: 9faf 94bd f5c5 afbd 4e31 aa3d 9be7 263d
00000050: 1cab 19be f144 10be 5be0 8c3d 6d65 cd3d
00000060: 5816 fabd fb1b 82bd f447 8ebc aaa6 c13d
00000070: 1480 953d 1bde 86bd 8e09 7e3d b906 243d
00000080: 3adb d5bd d41c 79ba c410 4a3e 0dab 06be
00000090: 6018 093c b8de d1bd ec34 743d d730 94bd
000000a0: 1507 f0bd 4f52 2ebe f93e 9c3d 6317 90bc
000000b0: bd11 3e3d 01e3 873d b31b 1b3e 4b94 b93d
000000c0: 9200 3ebd daad 11be ccee a23d c132 793d
000000d0: 34e7 d3bc 293b 9abc 3a26 01bc 4c93 923c
000000e0: 3007 f0bd 49af 8d3d 5bfa 40bd 8c6a af3d
000000f0: 8a90 2cbd 7b27 963d 761f f83d 06ab e43b
00000100: 1362 913c 20d4 0dbd c3c8 a5bc c887 193e
00000110: f21d 12be 1b7a 98bd 713d dbbd 45d1 ae3d
00000120: 7034 843c 49cb 92bd df30 7a3c 3d95 e1bd
00000130: f0e2 62bd bae6 afbd 5d51 34bd b27f f6bd
00000140: f10d f5bd 6041 72bc 52c9 863d 60fe c03d
00000150: 6e3d 453e 9fa7 1cbe 90f7 78bd 3c33 60bd
00000160: d5e2 92bd b923 fcbd 0853 66be 9ce5 f8bd
00000170: 2b38 74bd faeb 98bd 49e2 65bd 870e 083d
00000180: b0d2 263c bf99 94bd ade9 ca3d 5ec9 2a3d
00000190: 71b2 1bbe 2b3a edb9 2e7b 1abe 5062 c4bb
000001a0: b76a 3c3d c699 06be 9065 ffbd 16fc 27bd
000001b0: 06cd 733c dee8 c83d a71a f93d a7bc 3d3b
000001c0: 199b e73d 3621 8ebd ab50 b23c b448 9cbd
000001d0: 1b1c 2d3d 553d afbd bf2d 453d 5050 2dbd
000001e0: b4f4 533b 9a7a 5b3d f51e c8bc 7b4a f83d
000001f0: 5faf 07be 44e5 6f3d 77ce d73b d45c 7a3d
00000200: eb0b b2bd d40a d3bb 5f6f 143d 3698 e23d
00000210: 594f d7bd a409 0dbd 32e9 47bd 998d c43d
00000220: 4418 57bd 00be 23bd d885 e0bd e0d7 a6bc
00000230: 3f88 2c3d f6a7 453d 3c1f eb3c 5991 d3bc
00000240: bb2f d2bc 6669 833d cef2 34bc f8ad cd3d
00000250: e2e3 babd 4e3f 383d a832 66bd 268d c03c
00000260: 2e12 1f3d c1f6 3cbd 8702 9e3d 3800 b5ba
00000270: 23ed af3c d800 f13d b8db b23d b15a 6a3c
00000280: 2b1f ecbd b07c d53d 1d46 ecbd 764a 98bc
00000290: 61ce 003e 5d1c b1bd 60c6 ccbd 9b3a f9bd
000002a0: 84f5 b83d d8ed a9bd f26a 6ebd 6122 1d3e
000002b0: ec82 8f3c a088 b8bd 702d 993c 1906 e53c
000002c0: 1315 1bbc 267e 473c 75a4 ddbc 9137 903c
000002d0: 3454 8c3a b2cf 053c 0b44 d8bd 73c9 24bd
000002e0: f24a e73c 9ec4 edbd 4438 bdbd 5322 f1bd
000002f0: e7f0 b5bc dbca 8ebc 93a9 b9bd b59b 413d
00000300: ecaf 6cbd 0032 7bbd 6865 e0bd 4309 5c3d
00000310: 5fb3 d0bc a6f6 683c 713e df3c a887 fabc
00000320: e7f3 8fbd acf0 7e3d 49b7 923c d32f 15bd
00000330: 5390 273c 659f 9fbd 0557 01be 5327 66bd
00000340: a6ba 8a3c ae7c 253e 7f01 a3bb 602b 82bc
00000350: 9829 acbc 0f6f 54bd 110f 7b3d 4ffe 54bd
00000360: 289b f2bd 7b2f cebd a534 de3d d031 6e3d
00000370: 3eb5 c4bc fc90 b93c c7ff 023c b1e0 f1bd
00000380: ce2c c03d d3fc aebd 85c2 9f3d 3501 033e
00000390: 7081 1fbe db1b fd3d 1b40 92bd a7a2 57bd
000003a0: 9ddb d0bc 0272 903b 2b69 c13c 6b17 603d
000003b0: 7b75 acbd 2d6d b83d d4dd 893d 3dfa aabd
000003c0: 74e4 70bd 22f7 5e3d 11a7 8b3d b7eb 7cbc
000003d0: c83e a73d d932 81bc bc7c 04be f4b1 873d
000003e0: 70aa e8bd b04b 343d 50dc 88bd 6498 c3bd
000003f0: da51 0d3e 227c 423d ea05 f4bc 0952 ffbc
-0.07267908 0.059267335 -0.12864496 0.03415197 -0.08453326 -0.1127725 -0.07858445 0.14282236
0.09710366 0.021575183 0.03850809 0.013106266 0.072040595 -0.022458872 -0.10314825 -0.005660861
-0.072600596 -0.08582679 0.083101854 0.04074822 -0.1500668 -0.14088799 0.0687873 0.10029111
-0.12211293 -0.06352993 -0.017368294 0.09455617 0.072998196 -0.06585332 0.06202083 0.040045474
-0.10442205 -0.0009502892 0.19732958 -0.13151188 0.008367628 -0.10247558 0.059620783 -0.07235878
-0.11720101 -0.17023586 0.076291986 -0.017589277 0.046403635 0.066350944 0.15147285 0.09061488
-0.046387263 -0.14226475 0.07955703 0.06083942 -0.025867082 -0.018827038 -0.007882649 0.017892502
-0.11720121 0.069181986 -0.047113758 0.08565244 -0.04213003 0.07331749 0.12115376 0.0069783954
0.01774696 -0.034626126 -0.020237332 0.14993203 -0.14269236 -0.07445165 -0.107050784 0.08536009
0.016138285 -0.0716768 0.015270441 -0.11014793 -0.055392206 -0.085889295 -0.044022907 -0.12036075
-0.1196555 -0.014786094 0.065813676 0.09423518 0.19261715 -0.15298317 -0.06078297 -0.05473636
-0.07172171 -0.12311501 -0.22492611 -0.121531695 -0.05962388 -0.07466884 -0.056124005 0.03321698
0.010182068 -0.07255887 0.09907851 0.041695945 -0.15204789 -0.000452475 -0.15086052 -0.005993165
0.04600021 -0.13144597 -0.124705434 -0.041011892 0.014880424 0.09810041 0.12163287 0.0028951557
0.113088794 -0.06939928 0.021766981 -0.076310545 0.04226313 -0.0855662 0.04813933 -0.04231292
0.00323419 0.05358372 -0.024428824 0.12123581 -0.13250493 0.058568254 0.006585892 0.061123684
-0.086936794 -0.0064405 0.036239024 0.11064188 -0.10513181 -0.034433022 -0.048806377 0.0959732
-0.052513376 -0.03997612 -0.10963029 -0.02036661 0.042122122 0.048255883 0.028701417 -0.025826143
-0.025657525 0.064165875 -0.011044217 0.100429475 -0.091254964 0.044982247 -0.056200653 0.023504805
0.038835697 -0.04613376 0.07715326 -0.0013809269 0.02147538 0.11767739 0.08733314 0.014303849
-0.11529382 0.10424173 -0.115368105 -0.018590193 0.12578727 -0.08647988 -0.099987745 -0.12169381
0.090312034 -0.08297318 -0.05820746 0.15345146 0.017518483 -0.09010434 0.018698424 0.02795701
-0.009465474 0.012176072 -0.027055958 0.017604621 0.0010706247 0.008167194 -0.10559853 -0.04023118
0.028233979 -0.116097674 -0.092392474 -0.11774125 -0.022209598 -0.017430713 -0.09065547 0.047267634
-0.05778496 -0.06132698 -0.10956842 0.05371977 -0.025476156 0.014218962 0.027251454 -0.030582264
-0.070289426 0.06224124 0.017909663 -0.03642256 0.010227281 -0.07794074 -0.12630852 -0.056189846
0.016934704 0.16160843 -0.0049745436 -0.015889823 -0.021015927 -0.051863726 0.061293665 -0.05200034
-0.11846 -0.1006765 0.10849885 0.058152974 -0.024012204 0.022652142 0.007995552 -0.118104346
0.09383546 -0.08544316 0.078007735 0.12793429 -0.1557672 0.12358829 -0.071411334 -0.05264535
-0.025495345 0.004408122 0.023609718 0.054709833 -0.08420845 0.09005199 0.067317635 -0.083485104
-0.05881162 0.054434903 0.06818975 -0.015437058 0.081662714 -0.015771316 -0.12938207 0.06625739
-0.113606334 0.044017494 -0.06682646 -0.095505506 0.13800755 0.047481664 -0.029787976 -0.031167047

std.constant7 f4 [11, 128]
00000000: fb87 323e 5a62 603d 272b 0bbe 0e09 9d3d
00000010: ec3b 893d 3a19 54bc a0e3 52bc bf4c 3fbd
00000020: 14de ba3d 3f11 84be e3ce 13be 963c 4a3e
00000030: e0a8 17bd 6972 15be 5c24 3fbc e398 123c
00000040: 1678 1fbd 9392 0bbe c0bc 48be ca77 ebbd
00000050: 6928 1cbe b1d6 853e e079 2e3e f317 38be
00000060: f472 153e 6c58 85bd 8723 5fbe ddfe 773e
00000070: d237 0bbc d360 3ebc 40cb 1cbe 768a 62be
00000080: 0116 c33d 17d0 51be ccb8 31be c536 c5bd
00000090: a923 e43d d9c8 4e3e 91f9 07be 7cb9 49be
000000a0: d6e9 fcbd 2fc4 dfbd b326 e83d a233 cabd
000000b0: 3057 223e 9a11 80bd 39d2 1c3a 8216 803d
000000c0: 990e 2c3d 27f7 9f3b d643 323c 6a41 97bd
000000d0: c919 673e b833 25be b755 1ebe 4557 e63d
000000e0: a953 2a3e 3f27 f73c b7b1 40be ba66 c83d
000000f0: d833 453e 415f 603e eb95 34be 1519 8ebd
00000100: 051d 653d 7a15 183d dbbf 4ebc 3550 93bd
00000110: ee50 0b3d 8dc8 71be ab6e dabb 9f2c 00be
00000120: 6475 c03d 0560 883d 3789 d4bd be67 7ebd
00000130: 813e 883d 25aa 3f3e dbda 5c3d 519d fd3d
00000140: 46ae 2b3d d4d2 883e 1c74 533e d1b8 43bd
00000150: f424 c5bc 6ad5 82be b572 593e c541 1cbe
00000160: c7c4 b8bd 0ae8 22be c5a4 22be 71a0 87bd
00000170: 8fa3 f73d e6f7 963b 98af 19be af31 8e3c
00000180: ac66 8bbd d644 76bd 75b6 3dbe 54af ab3d
00000190: bc68 adbc 5f6b 373d 90fe 5b3e 26f7 1a3d
000001a0: 7cd2 60bd ac15 33be f20e 1cbe 1cac 1abe
000001b0: 61fa 8fbe ecbe fdbd 2d80 3e3e e258 88be
000001c0: 624d 9bbc a8ab 503d 93c1 863e 3121 8d3e
000001d0: 479f 65be 2cc6 cb3d a877 933e d87e e73d
000001e0: ada8 223e 2166 c2bd f19d debd e58d e03d
000001f0: 80c8 5d3e c31b 0c3e 5f00 4d3d f73b 1f3d
00000200: d2eb 3abe b97c 0ebe 5d5c 30be e333 583e
00000210: 7a92 863d 10fd 873d ef1b 173e faa1 30be
00000220: 2b72 f7bd 5fc6 86be 4b56 dc3d b42b c3bd
00000230: 3cb7 a03d 8eda 42be 1de6 66be 21c8 183d
00000240: 8250 c7bb 431e 8a3d 45d2 1f3e 971d adbc
00000250: 0e58 77be 854e 5dbe c5a9 443e b3a2 57be
00000260: fa8a a7bc 4876 86bd 1c6a 86bd 4c50 2b3d
00000270: 27c7 0dbe 85c1 1c3d 8970 943b 465c 963e
00000280: 93e7 583e 381d 6f3e 1057 b4bd 875e a4bd
00000290: 83c3 60be 9b97 17be 6fbf 30be 8255 933d
000002a0: 7b6d 30be 858d f1bd 1aef 87bd dc65 eabd
000002b0: ae6e 133e 85aa 5ebe e8c3 173e 1097 2c3e
000002c0: c481 1abe b74d 4fbe 217d a03b 02e5 1e3c
000002d0: 09ff 59be 9cf1 9f3c eca4 29be 1fbe adbd
000002e0: 84a6 f0bd c85d 44bd 1dbd 46bc ca0e a4bd
000002f0: fcc4 98be ce62 23be 8b2a 5c3e c052 a83d
00000300: ea00 583e 64fa 143e ee9b 3dbe 9419 ddbd
00000310: 90cb 18be 2942 ecbd a250 79bd 3d9e 693d
00000320: 8704 6ebe b39e 493d b6bf 51be 7f0b 6cbd
00000330: 6521 efbd 1bf3 85be 54fb 2ebe 4ec3 1dbe
00000340: 8cda 533e 049a 3ebe 3649 9cbd b068 a53d
00000350: e529 883e c03d 35be 4ec3 6cbc 591a 33bd
00000360: 0d34 71be aa2f 79bd 33f0 e03d ad64 b53d
00000370: 932b 163e 8888 23bd c35c bc3d bff3 293e
00000380: 076b 4f3e 5ee4 893d 260f 3e3e 113f f7bd
00000390: cdf8 08be d3d2 523e 1950 e4bd 2c00 023e
000003a0: 2bf4 2cbe 3bad 9a3d 0588 c5bd 309c 4a36
000003b0: d400 2ebe efc8 17bc 615e 203e 0df1 633e
000003c0: 43c4 553d e499 4ebe 6c6b 9fbd 7d38 a8bd
000003d0: 090f 4a3c 180a 77be f0af 3fbd 9d01 1fbe
000003e0: 64d0 903d 4d89 55be fdab 303e e8fd 773e
000003f0: 35d8 4f3e 4e5b 173d c888 12be d4c0 2f3e
0.17434685 0.054781295 -0.1359068 0.07667743 0.06700882 -0.012945468 -0.012871653 -0.04670405
0.09124389 -0.25794408 -0.1443439 0.19749674 -0.037026286 -0.14594425 -0.011666384 0.008947584
-0.038932882 -0.13630132 -0.19603252 -0.11497457 -0.1524979 0.2614036 0.17038679 -0.17977886
0.14594632 -0.06511006 -0.21790896 0.24218316 -0.008497195 -0.011619764 -0.15311909 -0.22123131
0.09525681 -0.20489536 -0.1735565 -0.09629587 0.11139614 0.20193805 -0.13278796 -0.19699663
-0.12349288 -0.10926091 0.11335506 -0.098731294 0.15853572 -0.06253357 0.00059822534 0.06254293
0.04200611 0.004881758 0.010880431 -0.073855236 0.2256843 -0.1613301 -0.15462385 0.11247114
0.16633476 0.030170081 -0.18817793 0.097852185 0.19258058 0.21911336 -0.17635314 -0.06938378
0.05593588 0.037129857 -0.012618984 -0.07193033 0.034012727 -0.2361166 -0.0066660247 -0.12517022
0.093973905 0.06658939 -0.10377734 -0.062110655 0.06652547 0.18717249 0.053919654 0.12383521
0.041914247 0.2672335 0.20649761 -0.047783677 -0.024065472 -0.25553447 0.21235164 -0.15259464
-0.09021907 -0.15908828 -0.15883167 -0.06622399 0.12091743 0.0046071885 -0.1500839 0.017357675
-0.068066925 -0.06012424 -0.18526633 0.083830506 -0.021168105 0.04478013 0.21483827 0.037833355
-0.054888234 -0.17488736 -0.15240076 -0.15104717 -0.2812071 -0.12389931 0.18603583 -0.26630312
-0.018957797 0.050944954 0.2631956 0.27564386 -0.2242404 0.09949908 0.28802228 0.113034904
0.15884657 -0.09492136 -0.10869969 0.10964564 0.21658516 0.13682465 0.050049182 0.038875546
-0.18254021 -0.13914765 -0.17222734 0.21113543 0.06570907 0.06640065 0.1475675 -0.17249289
-0.12082323 -0.2632322 0.107586466 -0.0952982 0.07847449 -0.19028684 -0.22548719 0.037300233
-0.0060825953 0.06744053 0.15607555 -0.021132274 -0.24154684 -0.21611984 0.19205387 -0.21058159
-0.020452011 -0.06565529 -0.065632075 0.041824624 -0.13845502 0.038270492 0.004530017 0.29367274
0.21182089 0.2335099 -0.08805668 -0.08025842 -0.21949582 -0.14803927 -0.17260526 0.07194044
-0.17229263 -0.11794571 -0.06637402 -0.114452094 0.1439769 -0.21744736 0.14820826 0.16854501
-0.15088564 -0.2024449 0.004897729 0.009698154 -0.21288694 0.019524388 -0.16566819 -0.08483528
-0.1175051 -0.047941 -0.012130049 -0.08010633 -0.29837787 -0.1595566 0.21500604 0.08218908
0.21094099 0.14548641 -0.18516514 -0.10795894 -0.14921403 -0.115360565 -0.060867913 0.057035673
-0.23243915 0.049223613 -0.20483288 -0.05762815 -0.116762914 -0.26162037 -0.17088062 -0.15406534
0.20688838 -0.1861344 -0.076311514 0.08076608 0.26594463 -0.17699337 -0.014450861 -0.0437263
-0.23555012 -0.06083647 0.10983314 0.08857093 0.1466506 -0.03992513 0.091973804 0.16596888
0.20255671 0.06733011 0.18560466 -0.12072576 -0.1337616 0.20588236 -0.1114809 0.12695378
-0.16890018 0.07552572 -0.09645084 3.0191259e-06 -0.16992503 -0.009264215 0.15661003 0.22259922
0.052189123 -0.20175892 -0.07784161 -0.08213899 0.012332686 -0.24124944 -0.046798646 -0.15527959
0.07070997 -0.20853157 0.17253108 0.24217951 0.2029732 0.03695231 -0.1430999 0.17163402

bidirectional_2/backward_lstm_2/lstm_cell_14/bias1 f4 [512]
00000000: 3b42 cf3c 690d b0bb 6a6f 04bd 1ef5 36bd
00000010: 96aa 4fbc ca8a 983b 705c f3bb c602 6cbc
00000020: 78a8 53bc 7b9f 5e3a 56c2 6dbc 18d4 c83c
00000030: 7fcd 7e3c 528f 50bc 21f3 a4bc 99e1 fcbc
00000040: c5d2 393d daba 4c3d 9976 963c 9ad2 c13c
00000050: b44d 5c3c 2059 cbbb 2108 6dbc a3d6 603d
00000060: 924d ad3c ab0d 033c efbd 60bb 80e8 a63c
00000070: eda8 073c 8e3e 40bc 485b 37bd c72e 75bc
00000080: 7452 083c f881 023c 037e 063d 4885 c83c
00000090: 0b1f 9fb9 a111 003d f52d 593b d702 fbbc
000000a0: a408 b1bb 3b9a 713c addd bb3c 4e32 dabb
000000b0: 8cb7 1d3d 39e5 ba3d 7785 13bd eff3 0b3c
000000c0: 50b0 9abc a270 153c f1cf 67bc 4ba2 a8bc
000000d0: d9e2 53bc f39e 1d3a 04ef 0dbc a70f 233d
000000e0: 77c3 fcbc 1130 e33c ad76 cc3c a744 643b
000000f0: 6baa 1b3d 7a72 fabb 4d56 c13c 0287 2b3b
00000100: fc47 5d3c d9ac 05bb a9de d33c e5ce 8939
00000110: 63bd debb 6cc9 20bc 3e93 22bc 5056 af3b
00000120: cebc b2bc 4dae 953c 69e1 ea39 7147 78bc
00000130: 94f9 b53c 311b b8bb daa7 3bbc 9517 9f3d
00000140: c1e6 e3bc dd4e c83b 46a9 403c 551d 6f3c
00000150: d8ec c2ba 01c5 203c 3835 a1bc 5546 173d
00000160: 91c5 823c 85a1 033d 1cd0 9dbc 098d a8bc
00000170: 0fb7 9dbc 2a6c 8a3d f293 a4bc e1e5 213c
00000180: 34b2 cabb ab6c 5a3c 45c4 eb3c c092 b63c
00000190: 8838 243b 8c47 343d d9e8 923a 2619 1cbc
000001a0: 5596 fb3b 8586 403d c9ac 903c 8473 42bc
000001b0: 8eb9 1fbc ef1e b53c 5590 15bc 41fc 363d
000001c0: a6a4 823d ccf0 f03c ce83 9b3b 2f29 49bc
000001d0: e941 173b 90a7 523c fb69 16bb 6ff3 fe3c
000001e0: f69b 89bb 2922 c53c e972 36bc 9c5d 173d
000001f0: 5f3e 17bd ec58 bf3c 7ed6 91b8 70a4 c3bb
00000200: fc48 873f 6101 7e3f 4692 783f e23b 7b3f
00000210: b9df 823f 76d7 813f a87b 803f 1196 7f3f
00000220: ceb0 803f d8fc 813f 3f43 7c3f 67bd 823f
00000230: 5049 823f 5698 7c3f ec61 793f e0c9 7d3f
00000240: bd96 843f 8799 823f 8c24 843f ebae 843f
00000250: 9837 813f 8d94 813f e21d 7c3f 9b0e 7e3f
00000260: 6010 813f 0631 823f 00c6 7e3f 81a3 833f
00000270: 8b1d 833f 0e6e 803f 712b 773f cbc4 7b3f
00000280: 1d62 823f ba38 803f 08e9 843f 1ab4 843f
00000290: 5b8a 853f 8013 873f f00b 813f 714c 7e3f
000002a0: 0542 7f3f d5c3 833f f538 843f 8785 783f
000002b0: 98ce 863f 2b31 8a3f 58fc 793f f329 823f
000002c0: ddfc 7c3f fd2a 813f d4c8 7d3f 8d0e 7d3f
000002d0: 72bf 7b3f 087b 803f f666 803f add0 843f
000002e0: a752 843f dafc 823f d34a 843f 670a 813f
000002f0: f5f5 843f 4eb0 7e3f 86ce 823f 8334 803f
00000300: 985d 823f b7b5 7e3f 334b 823f de96 803f
00000310: d3fb 7f3f fed5 803f 2ffe 7c3f 2247 823f
00000320: 7ce1 7b3f 4464 843f 60e3 813f 30ab 793f
00000330: df7e 853f 3f8e 803f 863b 753f 04a1 8a3f
00000340: 94cd 7c3f aaf6 7e3f d047 833f f0cc 813f
00000350: 961d 7d3f 2747 823f dbd6 793f df77 823f
00000360: 78b7 7e3f d8a8 833f 79d1 793f 8e3d 803f
00000370: 36dd 793f 2fcf 883f 1502 7b3f 6e04 7f3f
00000380: 3839 803f a8e0 813f d4a6 843f 1c68 823f
00000390: eea9 813f d488 813f 9927 7f3f b4aa 7d3f
000003a0: 4b26 7e3f ec81 873f 9815 843f d79d 793f
000003b0: 93bf 7d3f 4b82 823f e1e2 7a3f e142 8b3f
000003c0: cbbc 853f 930a 883f 6a93 823f 0004 823f
000003d0: b356 7f3f e943 833f f28e 813f bb81 853f
000003e0: 0691 813f 3105 843f d774 823f bac7 823f
000003f0: 6252 7c3f 531c 823f 2922 7e3f 1fc1 803f
0.025300136 -0.0053726924 -0.032332815 -0.044667356 -0.012674948 0.004655217 -0.007426791 -0.014404958
-0.012918584 0.00084923924 -0.014511665 0.024515197 0.015551924 -0.012729483 -0.020135464 -0.030869292
0.04536702 0.049982883 0.018367099 0.023659993 0.01344626 -0.006205693 -0.01446727 0.054892194
0.021155152 0.007998864 -0.0034292897 0.020374537 0.008280021 -0.011733664 -0.044764787 -0.014964766
0.00832044 0.007965557 0.032835018 0.024477616 -0.00030349972 0.031266812 0.0033138965 -0.030641003
-0.0054026414 0.014746244 0.022932852 -0.006658829 0.038505122 0.09125752 -0.036015954 0.008542045
-0.0188829 0.009121092 -0.014148698 -0.0205852 -0.012932503 0.000601276 -0.008662943 0.03980985
-0.030854924 0.02773288 0.024958933 0.003483096 0.03800432 -0.007643041 0.023600722 0.0026173
0.013505932 -0.0020397215 0.025863009 0.00026284825 -0.006797479 -0.009813648 -0.009922801 0.0053508654
-0.021818545 0.01827159 0.00044799902 -0.015153752 0.022213735 -0.005618476 -0.011453593 0.0776817
-0.027819993 0.006112917 0.011759108 0.014594396 -0.001487161 0.009812594 -0.019678697 0.03693231
0.015963348 0.03213646 -0.019264273 -0.020575063 -0.019252328 0.06758912 -0.020090077 0.009881468
-0.0061857942 0.0133315725 0.028780112 0.022286773 0.002505811 0.044013545 0.001120831 -0.00952748
0.007677833 0.047003288 0.017660515 -0.011868361 -0.0097488295 0.022109477 -0.00912865 0.04467416
0.063790604 0.029411696 0.004745937 -0.012277885 0.0023080057 0.012857333 -0.0022951353 0.031121938
-0.0041995 0.02406414 -0.011135795 0.036954507 -0.036924716 0.023357831 -6.954091e-05 -0.00597053
1.0569148 0.99220854 0.97098196 0.9813825 1.0224525 1.0143878 1.0037737 0.9983836
1.0053957 1.0155287 0.9854011 1.0214051 1.0178623 0.98669946 0.9741504 0.9913616
1.0358502 1.0203103 1.0323653 1.0365881 1.0095091 1.0123459 0.984831 0.99241036
1.0083122 1.0171211 0.99520874 1.0284272 1.0243391 1.0033586 0.9655066 0.9834716
1.0186192 1.0017312 1.0383615 1.0367463 1.0432848 1.0552826 1.0081768 0.9933539
0.9971011 1.0294138 1.0329882 0.97078747 1.0531797 1.0796255 0.9765067 1.0169052
0.9882334 1.0091244 0.99134564 0.9885033 0.98339 1.0037546 1.0031421 1.0376183
1.0337723 1.0233414 1.0335335 1.00813 1.038756 0.9948777 1.0219276 1.0016025
1.0184813 0.99496025 1.0179199 1.0046041 0.9999363 1.0065305 0.98825353 1.0177958
0.98390937 1.0343099 1.0147514 0.97526836 1.0429343 1.004341 0.9579395 1.0830388
0.9875119 0.9959513 1.025629 1.0140667 0.9887327 1.0177964 0.9759347 1.0192832
0.994987 1.0285902 0.97585255 1.0018785 0.97603166 1.0688227 0.9805005 0.99616134
1.0017462 1.0146685 1.0363412 1.0188022 1.0129983 1.0119882 0.99669796 0.990886
0.9927718 1.0586524 1.031909 0.9750647 0.99120444 1.0196012 0.9800244 1.0879785
1.044824 1.0628227 1.0201237 1.0157471 0.9974167 1.02551 1.0121748 1.0430216
1.0122383 1.0314084 1.0191907 1.0217202 0.98563206 1.0164894 0.99270874 1.0058936

std.constant16 f4 [512, 128]
00000000: 524d 43bc 95c2 cebd 4f91 5d3c 6a2d 1d3d
00000010: 8d96 b83d c180 96bd d10b b13d e1c0 efbd
00000020: e886 883d b288 883c 852a b7bc 8037 47bd
00000030: de70 073d 9067 a9bc 0af2 cb3d e3a0 bebd
00000040: 176d cabd 3fa7 183c 7a76 8c3d 6f83 c0bb
00000050: 3207 79bd b546 673b 84ac 0cbd cc37 96bd
00000060: 1625 17bd 5b38 78bc 4bca ba3d ff2e 4dbd
00000070: 20db 0cbe c89a 14bd 51c8 313e df21 6b3b
00000080: b95d e9bb f50f 283e d738 af3c 80eb 2b3e
00000090: 05cc d73d 94a6 643d 4253 55bd b433 0fbd
000000a0: ae5f debd ef71 2dbd 791b 423d 1b89 4f3d
000000b0: 8d2c fc3d 9bd2 d53d 2a5f 5bbd 056f 8c3e
000000c0: c951 82bc 0317 ab3d 5687 2cbe 50ac f5bd
000000d0: bc7c c9bd eea7 193e 8a94 e0bd f651 a4bd
000000e0: a6fa 20bc 76f9 a23d 2b28 cc3c 120f 0ebd
000000f0: 5012 21be 696f 9d3d 9a11 26bd c6b3 1bbd
00000100: b0a3 803d 2fe6 23be 7e7f 1d3d 7a92 883d
00000110: eb4a 113e b03f 7c3d 5d14 073e fb53 babc
00000120: 0cc4 27bd 41ea d4bd 7a81 9a3d b538 a23c
00000130: c1b6 823c 4537 6bbd 8ead 68bd d5b1 ed3d
00000140: de35 9c3d 54e2 b73c 0ade 973d 8131 9dbd
00000150: 58d1 02be af37 523e f29f 833d dd14 3f3c
00000160: 3110 b2bd ced2 463d 7902 aebd 4354 6bbd
00000170: 7761 0bbc d50e fbbc 47e6 8d3d d9b6 283e
00000180: 8445 e23d 14bf c03d 138d b7bd 545d 0abd
00000190: ba34 743d 338f 7f3d a421 51bd 67aa 673d
000001a0: cb10 66bd 7a11 12bd 3668 bdbc 85c0 bbbc
000001b0: 69eb 673d 9257 ffbc 5306 143d 5a2f a43d
000001c0: fe89 1dbe d2c7 e93d 83cf 873d 9cf7 063d
000001d0: c3c8 1bbe 330e 98bc ce0c cfbd f6eb a1bd
000001e0: 0528 573d 612d 913d 6c42 c9bd ce57 e93d
000001f0: 6d3a ad3a 51c1 96bc 070f babd c3a7 323c
00000200: 3d88 abbd 372b 273d 0123 64bb e9cc 40bc
00000210: 0f46 3d3d 9ebb a7bc 78ed 04bc 84ef 26bc
00000220: 88f1 5dbb 1903 08bd 69a5 293d 1fd4 8ebc
00000230: 4202 893c d79c 503d a62b 8abd 708d f13c
00000240: 4f16 c93c 750a 853d aa7b b43d aff8 d1bd
00000250: 38ee 38bd 4c76 96bc 02d5 0b3d 3647 15bd
00000260: ece9 393d cd48 103c dc4a 6fbc f685 843d
00000270: 3d0b fcbc 278d 2b3d fcb6 9c3d dc98 1ebd
00000280: 3434 51bd 4bb3 29bd 51af 6e3c b9cb a5bc
00000290: 4605 5a3d 3d8f ac3d 5bad 653d fb42 f2bc
000002a0: 1bc3 b2bc ac52 c13b f044 923c 33fe b1bc
000002b0: f7d1 85bd 6096 dcbd 3a51 9a3b 83c3 b5bc
000002c0: 01e8 1ebd 1176 0f3c 2188 6d3c 36f5 293d
000002d0: 455a 853d bc41 c1bb 61fb 943d 159c 173c
000002e0: 19ce 52bd 9d80 1bbc 11ba c7bd 14a3 393d
000002f0: 80c6 d3bc 0cd5 87bd 426d b73d 615e a2bd
00000300: f8db 7e3d 638c b2bd 9ff0 c33c f416 053c
00000310: 986d 6f3d 0599 953c aa4e 0fbd 38a6 a3bd
00000320: 8903 34bc 054b a7ba 7a8c 70bd 2464 043e
00000330: 3b32 d3bc df8d febc 72bc 7bbd 5b60 813d
00000340: a512 0bbc 2df3 85bd b136 f7bd b518 86bd
00000350: 874a 9c3c 2c6d d93c 657b 41bc 19f2 1c3d
00000360: 6cd5 6a3a 1b03 55bd 73dc ab3d c2c1 8a3d
00000370: 80df 72bc e95d 5bbd 8f50 1b3d a86e a0bd
00000380: 4bc2 b63c 720c 6e3d 0125 dd3b e23e 85bc
00000390: 5780 453d dfdd 0ebd 7e87 cabd b03b 783d
000003a0: c3c3 df3b e3d1 90bb 42ac 56bd 626d a73d
000003b0: af47 3cbc 9f61 1c3d e38a 7cbb ed6d 923c
000003c0: a845 28bc 17a8 82bd 68e9 023d 34db 303d
000003d0: 348d 113d 3f60 61bd c7b8 59bc 1dd7 a0bd
000003e0: a106 973d 33ad 073d ae84 313c 62b4 793c
000003f0: 7a35 92bd 134f f33c ad3e a9bc e557 c4bd
-0.01192029 -0.10095707 0.013523414 0.03837339 0.0901309 -0.073487766 0.08644832 -0.117067106
0.06666356 0.016666744 -0.022359142 -0.048636913 0.033066623 -0.020679265 0.09958275 -0.093080305
-0.098840885 0.009317218 0.06858535 -0.005875043 -0.060797878 0.0035289947 -0.03434421 -0.07334861
-0.036900602 -0.015150155 0.091206156 -0.050093647 -0.13755465 -0.036280423 0.17361571 0.0035878343
-0.0071217683 0.16412337 0.021389408 0.16789055 0.105369605 0.055822924 -0.052081354 -0.034961417
-0.10858093 -0.042344984 0.04738948 0.050667863 0.12313185 0.104405604 -0.053557552 0.2742845
-0.015908139 0.083539985 -0.16848502 -0.119957566 -0.09838244 0.15005466 -0.109658316 -0.08023445
-0.009825384 0.07957737 0.024921497 -0.03468234 -0.15729642 0.076872654 -0.04054413 -0.038013242
0.06281221 -0.16005777 0.038451664 0.06668563 0.14188735 0.061584175 0.13191362 -0.022745123
-0.04095845 -0.10396243 0.07544227 0.01980243 0.015956284 -0.057425756 -0.05680614 0.116061844
0.07627462 0.022446789 0.074153975 -0.07675458 -0.12775171 0.20529054 0.064269915 0.011662689
-0.086944945 0.048540883 -0.08496565 -0.057453405 -0.008507124 -0.03064672 0.069286875 0.16476001
0.11048415 0.09411445 -0.08962455 -0.03378041 0.059620596 0.062392425 -0.051057473 0.056558993
-0.05616836 -0.0356612 -0.02312098 -0.022918949 0.05662099 -0.031169686 0.036138844 0.08016844
-0.15384671 0.11415066 0.066313766 0.032950982 -0.15213303 -0.018561458 -0.10109864 -0.07906334
0.0525284 0.070887335 -0.09827122 0.113937005 0.0013216265 -0.018402727 -0.090848975 0.010904255
-0.08375595 0.040812697 -0.0034810903 -0.011767604 0.04620939 -0.020475205 -0.008113258 -0.010188941
-0.0033865888 -0.03320608 0.041417513 -0.017435132 0.01672471 0.050930824 -0.067466065 0.029486388
0.02454677 0.06496135 0.088126495 -0.10252511 -0.045149058 -0.018366955 0.034138687 -0.036444865
0.0453891 0.00880642 -0.01460525 0.064708635 -0.030767078 0.04188266 0.07652089 -0.038719997
-0.051075175 -0.041430753 0.014568166 -0.020238744 0.053227685 0.08425758 0.056073528 -0.029572954
-0.02182155 0.005899748 0.017855138 -0.021727657 -0.06534188 -0.10770869 0.00470939 -0.022187954
-0.038795475 0.008756177 0.014497788 0.041493617 0.06511358 -0.0058977287 0.07274509 0.009253521
-0.05146608 -0.009491113 -0.09752286 0.04532154 -0.025851488 -0.06632432 0.08956386 -0.079281576
0.062221497 -0.08718183 0.023918448 0.008123148 0.058454126 0.018261442 -0.03498713 -0.07990688
-0.010987171 -0.0012763446 -0.05872772 0.12928826 -0.025780788 -0.031073509 -0.061459012 0.063172065
-0.008488332 -0.06540523 -0.120709784 -0.06547681 0.019078506 0.026541315 -0.011809205 0.03831682
0.0008958194 -0.052004915 0.08391657 0.067752376 -0.014823794 -0.053556357 0.037918624 -0.07833606
0.022309443 0.058117338 0.006748796 -0.016265336 0.048218098 -0.03487956 -0.09889124 0.060603797
0.0068287565 -0.0044195517 -0.05241037 0.0817516 -0.0114917 0.038179036 -0.0038534931 0.017874682
-0.010270514 -0.06379717 0.031960875 0.0431778 0.035535052 -0.055023428 -0.013288683 -0.078535296
0.07374311 0.03312416 0.010834856 0.0152407605 -0.07139106 0.029700791 -0.020659769 -0.09587077

std.constant17 f4 [512, 3]
00000000: e087 7e3e 5b13 cd3d 81e8 eabd 6dbb e1bd
00000010: f558 2ebd 97ed 1dbe 9898 d4bd 2bda 0bbe
00000020: 342d 883c a912 65be d473 4cbe 0cf2 3f3d
00000030: b17d 1e3e 92ca 673d 6910 44be d55c 413d
00000040: aa8f b9bd 9c83 593e c206 423b 8ec1 27be
00000050: 3c88 2b3e 2ab4 28be 2ed1 09be 9913 4b3e
00000060: 0c13 833d 83fb 1abd 7235 27be 4c21 953b
00000070: 74bb ac3d f466 dc3d cd22 f0bd 5192 813d
00000080: e078 b9bc 7ea5 f7bd b28f 073e 240e 453d
00000090: 048f c53d 1d4a d8bd 6218 9d38 c3cb 3d3d
000000a0: 8402 0abe e528 9dbd 7ef8 9cbd f15b 0b3b
000000b0: f887 03bb 9d49 1bbe f5c1 3c3c e63c 38bd
000000c0: 3872 d83d 729e b2be 2338 14be fa31 90bc
000000d0: a5c9 14bc fd1c 53be 00f6 683d 7dcd 8ebd
000000e0: 6709 04bc 77b0 2bbd 69a8 9e3d 3b32 013e
000000f0: 3e94 ebbc 3446 613e 8215 e3bd ead6 f13d
00000100: 30e4 f4bd 26d0 1d3c 60ae df3d 2770 673d
00000110: 20b8 2bbd 8689 e53d eadf f13d 4fa9 e8bd
00000120: bdec 703c abe5 a4bd 8ef1 02be 9052 20be
00000130: a013 babb b036 d83d 48f7 263e e2ef 42bd
00000140: a6f4 2439 8f69 123d ec23 903c 33a4 f3bd
00000150: 26bb 79be 07ee 16be 87d1 293e e1c9 84bd
00000160: 49f0 c0ba 017a 193e 8003 ba3d ef05 753c
00000170: 5b20 a13c bc92 a8bd 1e37 8dbd 4dca eb3d
00000180: 872a 3c3d c1bd 6cbe 7143 72bd 94e3 4abe
00000190: 43a2 c43d fdd7 3c3e 79ac a13d f4ca 9e3c
000001a0: 3c09 63be 87dc 7dbd ef98 173e c140 28be
000001b0: ea9d 92bd 5567 07be ae20 983e 7039 2abe
000001c0: d184 5abe 05f2 25be b16b b73c 3da8 55bd
000001d0: 1b42 81bb faa6 82be 4517 39bd db7f 663d
000001e0: 69d0 023d d873 393e a7d1 c6bc 763f 38bd
000001f0: 7025 1cbe 55b5 f3bd c895 a4bd 0327 ab3e
00000200: 6b21 d0bd 50f2 813d 2e93 1dbc 062e 8dbd
00000210: 402c 32be 6dd5 3c3e 27d4 35be a9b4 5fbe
00000220: 86a2 f43c e69e c63d 8db7 f3bd 884a afbd
00000230: f811 9dbd 93e5 eb3d 59e5 19bd 3f30 1fbe
00000240: a591 65be 8c8b 1e3d 668c 9e3d bade 923c
00000250: 018e d43d 37e0 52be 851d 443d 575e efbd
00000260: 3b72 85bb 9301 03bd b0c1 9d3c b69d 883d
00000270: 3e03 ad3d aaf2 0abd 072f f83d 3f2d b03d
00000280: 5173 afbe c502 9f3d 0cd3 d5bb aa31 233d
00000290: 3079 233e 6cf9 ce3d 2d8c 913d fdeb 20be
000002a0: a8da 38be d2db a43e f3fd ec3d fa7c 54bd
000002b0: eaf4 77be 33f6 553d e288 d3bd dae9 0f3e
000002c0: fb76 ad3d 57d2 6e3d 897f 8b3d 462f ed3d
000002d0: 5bca febd 2d79 e7bc d069 3abc c975 1dbb
000002e0: 006b efbd e9d3 b13d 7303 be3d de6c 00be
000002f0: 8182 77bd c3f2 9dbd be08 f9bc 9dac 0cbd
00000300: 72aa 82bc 7575 9b3d 2504 32be cad8 203c
00000310: 317e 483d c430 8b3c 4559 a53c 3115 e4bd
00000320: f5a2 b9bd 1675 393d b469 1a3e 2de1 b8bd
00000330: 2d72 2b3d 2f4d a13b f0df dfbd b2d5 06be
00000340: 28e9 a33d 1a9f 69bd 15b9 c73d 0de7 b1bd
00000350: d0a6 58be d615 2bbe af7c 50bd 45df 8cbe
00000360: c2e0 fabd 7b2a e93d 7080 e5bd 272c 21bd
00000370: 4749 23bd e55c 7ebd 4887 cebd 845d f03d
00000380: 5575 78be 2f19 ed3d a8f7 6fbb e647 f4bd
00000390: bfcb fabc 5666 10be b722 23be d3e1 5f3d
000003a0: 4825 07be e6b9 7bbc a69a 023e 961c 1dbe
000003b0: 971f c9bd 3986 853e dc9d 91bd 5aa0 febd
000003c0: b0ff c53c 6b63 63bd 8408 513c 35a4 bb3d
000003d0: 246d 3f3d df78 a93c 1632 0f3e 442e b4bc
000003e0: fc8c 36bc c30c 1fbe b799 853d dbfa 8dbc
000003f0: 0a76 903d 44ac a7bd ea56 2e3d 39c5 1a3d
0.2485652 0.100134574 -0.11470128 -0.11022077 -0.042565305 -0.15422665 -0.103806674 -0.13657443
0.016623117 -0.223704 -0.1996606 0.046861693 0.15477635 0.05658967 -0.19146885 0.047207672
-0.09060605 0.21241611 0.0029606079 -0.16382429 0.16751188 -0.16474977 -0.13458702 0.19831695
0.06400117 -0.037837517 -0.16328982 0.0045510884 0.08434191 0.10761824 -0.11725388 0.06326736
-0.022640646 -0.12092112 0.13238409 0.04810919 0.09646419 -0.10561011 7.490885e-05 0.0463369
-0.13477522 -0.07673816 -0.076645836 0.0021264518 -0.0020070057 -0.151648 0.011520852 -0.044979952
0.105686605 -0.3488651 -0.1447454 -0.017601956 -0.009081279 -0.20616527 0.05687523 -0.069727875
-0.008058882 -0.041916337 0.077469654 0.12616818 -0.02875721 0.21999437 -0.11088087 0.1180857
-0.11957586 0.009632146 0.10921931 0.05650344 -0.041923642 0.11207871 0.11810286 -0.11360418
0.01470488 -0.08051618 -0.12787458 -0.15656495 -0.005678609 0.10557306 0.16305268 -0.04759205
0.00015731397 0.0357452 0.017595254 -0.11896553 -0.24387798 -0.14739238 0.16583835 -0.06483818
-0.0014720048 0.14987947 0.09082699 0.014955028 0.019668749 -0.08231112 -0.068952784 0.11513195
0.045938995 -0.2311926 -0.05914635 -0.19813377 0.096012615 0.18441768 0.07894225 0.019383885
-0.22171491 -0.06197789 0.14804433 -0.16430952 -0.07159026 -0.13223012 0.29712433 -0.16623473
-0.21339728 -0.16205604 0.022390218 -0.052162398 -0.003944648 -0.25518018 -0.045188207 0.056274276
0.031937037 0.18110597 -0.024269892 -0.044982396 -0.15248656 -0.11899821 -0.08036381 0.334282
-0.10162624 0.063450456 -0.00961761 -0.06893544 -0.17399693 0.1844079 -0.17756711 -0.2184626
0.029862653 0.09698276 -0.11900244 -0.085591376 -0.07669443 0.11518397 -0.03757224 -0.15545748
-0.2241884 0.0387073 0.077416226 0.01792847 0.103786476 -0.20593344 0.047879715 -0.11687916
-0.004072455 -0.031983923 0.019257396 0.06670706 0.08447884 -0.03392283 0.12118345 0.0860238
-0.34267667 0.077642 -0.006525403 0.039842285 0.15964198 0.10106167 0.071068145 -0.15715022
-0.1805216 0.3219896 0.115718745 -0.051877 -0.24214521 0.052236747 -0.10328843 0.14054051
0.08469959 0.058306064 0.06811435 0.11581282 -0.1244094 -0.028256023 -0.011377767 -0.0024026504
-0.116903305 0.08682997 0.09278002 -0.1254153 -0.060427193 -0.07712319 -0.030399676 -0.034344304
-0.015950415 0.075907625 -0.17384394 0.009817312 0.04894847 0.016991027 0.020184169 -0.111368544
-0.09064285 0.045277677 0.15079385 -0.09027324 0.041856933 0.004922531 -0.109313846 -0.13167456
0.080034554 -0.057036497 0.097520985 -0.086866476 -0.21157384 -0.16707548 -0.050900158 -0.2751409
-0.122499004 0.11385056 -0.11206138 -0.039348748 -0.039864805 -0.06210031 -0.100843966 0.11736587
-0.24263509 0.11577069 -0.003661612 -0.11927776 -0.030614732 -0.14101538 -0.15931211 0.054658722
-0.13197815 -0.015364146 0.12754306 -0.15342936 -0.098204784 0.26078966 -0.071101874 -0.124329284
0.024169773 -0.055514734 0.012758378 0.091621794 0.046734944 0.020687519 0.1398395 -0.021994717
-0.011142012 -0.15532212 0.065234594 -0.017331531 0.07053764 -0.08187154 0.042563356 0.037785742
